{
  "nodes": [
    {
      "op": "null", 
      "name": "q_data", 
      "attrs": {"__shape__": "(350, 10)"}, 
      "inputs": []
    }, 
    {
      "op": "BlockGrad", 
      "name": "blockgrad0", 
      "inputs": [[0, 0, 0]]
    }, 
    {
      "op": "null", 
      "name": "q_embed_weight", 
      "attrs": {
        "input_dim": "5", 
        "output_dim": "50"
      }, 
      "inputs": []
    }, 
    {
      "op": "Embedding", 
      "name": "q_embed", 
      "attrs": {
        "input_dim": "5", 
        "output_dim": "50"
      }, 
      "inputs": [[1, 0, 0], [2, 0, 0]]
    }, 
    {
      "op": "SliceChannel", 
      "name": "slicechannel0", 
      "attrs": {
        "axis": "0", 
        "num_outputs": "350", 
        "squeeze_axis": "True"
      }, 
      "inputs": [[3, 0, 0]]
    }, 
    {
      "op": "null", 
      "name": "init_memory_key_weight", 
      "inputs": []
    }, 
    {
      "op": "FullyConnected", 
      "name": "similarity_score", 
      "attrs": {
        "no_bias": "True", 
        "num_hidden": "50"
      }, 
      "inputs": [[4, 0, 0], [5, 0, 0]]
    }, 
    {
      "op": "SoftmaxActivation", 
      "name": "softmaxactivation0", 
      "inputs": [[6, 0, 0]]
    }, 
    {
      "op": "Reshape", 
      "name": "reshape0", 
      "attrs": {"shape": "(-1, 1, 50)"}, 
      "inputs": [[7, 0, 0]]
    }, 
    {
      "op": "null", 
      "name": "init_memory_value", 
      "attrs": {
        "__init__": "[\"normal\", {\"sigma\": 0.1}]", 
        "__shape__": "(50, 100)"
      }, 
      "inputs": []
    }, 
    {
      "op": "expand_dims", 
      "name": "expand_dims0", 
      "attrs": {"axis": "0"}, 
      "inputs": [[9, 0, 0]]
    }, 
    {
      "op": "broadcast_to", 
      "name": "broadcast_to0", 
      "attrs": {"shape": "(10, 50, 100)"}, 
      "inputs": [[10, 0, 0]]
    }, 
    {
      "op": "batch_dot", 
      "name": "batch_dot0", 
      "inputs": [[8, 0, 0], [11, 0, 0]]
    }, 
    {
      "op": "Reshape", 
      "name": "reshape1", 
      "attrs": {"shape": "(-1, 100)"}, 
      "inputs": [[12, 0, 0]]
    }, 
    {
      "op": "FullyConnected", 
      "name": "similarity_score", 
      "attrs": {
        "no_bias": "True", 
        "num_hidden": "50"
      }, 
      "inputs": [[4, 1, 0], [5, 0, 0]]
    }, 
    {
      "op": "SoftmaxActivation", 
      "name": "softmaxactivation1", 
      "inputs": [[14, 0, 0]]
    }, 
    {
      "op": "Reshape", 
      "name": "reshape6", 
      "attrs": {"shape": "(-1, 1, 50)"}, 
      "inputs": [[15, 0, 0]]
    }, 
    {
      "op": "Reshape", 
      "name": "reshape2", 
      "attrs": {"shape": "(-1, 50, 1)"}, 
      "inputs": [[7, 0, 0]]
    }, 
    {
      "op": "null", 
      "name": "qa_data", 
      "attrs": {"__shape__": "(350, 10)"}, 
      "inputs": []
    }, 
    {
      "op": "BlockGrad", 
      "name": "blockgrad1", 
      "inputs": [[18, 0, 0]]
    }, 
    {
      "op": "null", 
      "name": "qa_embed_weight", 
      "attrs": {
        "input_dim": "9", 
        "output_dim": "100"
      }, 
      "inputs": []
    }, 
    {
      "op": "Embedding", 
      "name": "qa_embed", 
      "attrs": {
        "input_dim": "9", 
        "output_dim": "100"
      }, 
      "inputs": [[19, 0, 0], [20, 0, 0]]
    }, 
    {
      "op": "SliceChannel", 
      "name": "slicechannel1", 
      "attrs": {
        "axis": "0", 
        "num_outputs": "350", 
        "squeeze_axis": "True"
      }, 
      "inputs": [[21, 0, 0]]
    }, 
    {
      "op": "null", 
      "name": "DKVMN->value_head:erase_signal_weight", 
      "inputs": []
    }, 
    {
      "op": "null", 
      "name": "DKVMN->value_head:erase_signal_bias", 
      "inputs": []
    }, 
    {
      "op": "FullyConnected", 
      "name": "fullyconnected0", 
      "attrs": {"num_hidden": "100"}, 
      "inputs": [[22, 0, 0], [23, 0, 0], [24, 0, 0]]
    }, 
    {
      "op": "Activation", 
      "name": "DKVMN->value_head_erase_signal", 
      "attrs": {"act_type": "sigmoid"}, 
      "inputs": [[25, 0, 0]]
    }, 
    {
      "op": "Reshape", 
      "name": "reshape3", 
      "attrs": {"shape": "(-1, 1, 100)"}, 
      "inputs": [[26, 0, 0]]
    }, 
    {
      "op": "batch_dot", 
      "name": "batch_dot1", 
      "inputs": [[17, 0, 0], [27, 0, 0]]
    }, 
    {
      "op": "_rminus_scalar", 
      "name": "_rminusscalar0", 
      "attrs": {"scalar": "1"}, 
      "inputs": [[28, 0, 0]]
    }, 
    {
      "op": "elemwise_mul", 
      "name": "_mul0", 
      "inputs": [[11, 0, 0], [29, 0, 0]]
    }, 
    {
      "op": "Reshape", 
      "name": "reshape4", 
      "attrs": {"shape": "(-1, 50, 1)"}, 
      "inputs": [[7, 0, 0]]
    }, 
    {
      "op": "null", 
      "name": "DKVMN->value_head:add_signal_weight", 
      "inputs": []
    }, 
    {
      "op": "null", 
      "name": "DKVMN->value_head:add_signal_bias", 
      "inputs": []
    }, 
    {
      "op": "FullyConnected", 
      "name": "fullyconnected1", 
      "attrs": {"num_hidden": "100"}, 
      "inputs": [[22, 0, 0], [32, 0, 0], [33, 0, 0]]
    }, 
    {
      "op": "Activation", 
      "name": "DKVMN->value_head_add_signal", 
      "attrs": {"act_type": "tanh"}, 
      "inputs": [[34, 0, 0]]
    }, 
    {
      "op": "Reshape", 
      "name": "reshape5", 
      "attrs": {"shape": "(-1, 1, 100)"}, 
      "inputs": [[35, 0, 0]]
    }, 
    {
      "op": "batch_dot", 
      "name": "batch_dot2", 
      "inputs": [[31, 0, 0], [36, 0, 0]]
    }, 
    {
      "op": "elemwise_add", 
      "name": "_plus0", 
      "inputs": [[30, 0, 0], [37, 0, 0]]
    }, 
    {
      "op": "batch_dot", 
      "name": "batch_dot3", 
      "inputs": [[16, 0, 0], [38, 0, 0]]
    }, 
    {
      "op": "Reshape", 
      "name": "reshape7", 
      "attrs": {"shape": "(-1, 100)"}, 
      "inputs": [[39, 0, 0]]
    }, 
    {
      "op": "FullyConnected", 
      "name": "similarity_score", 
      "attrs": {
        "no_bias": "True", 
        "num_hidden": "50"
      }, 
      "inputs": [[4, 2, 0], [5, 0, 0]]
    }, 
    {
      "op": "SoftmaxActivation", 
      "name": "softmaxactivation2", 
      "inputs": [[41, 0, 0]]
    }, 
    {
      "op": "Reshape", 
      "name": "reshape12", 
      "attrs": {"shape": "(-1, 1, 50)"}, 
      "inputs": [[42, 0, 0]]
    }, 
    {
      "op": "Reshape", 
      "name": "reshape8", 
      "attrs": {"shape": "(-1, 50, 1)"}, 
      "inputs": [[15, 0, 0]]
    }, 
    {
      "op": "FullyConnected", 
      "name": "fullyconnected2", 
      "attrs": {"num_hidden": "100"}, 
      "inputs": [[22, 1, 0], [23, 0, 0], [24, 0, 0]]
    }, 
    {
      "op": "Activation", 
      "name": "DKVMN->value_head_erase_signal", 
      "attrs": {"act_type": "sigmoid"}, 
      "inputs": [[45, 0, 0]]
    }, 
    {
      "op": "Reshape", 
      "name": "reshape9", 
      "attrs": {"shape": "(-1, 1, 100)"}, 
      "inputs": [[46, 0, 0]]
    }, 
    {
      "op": "batch_dot", 
      "name": "batch_dot4", 
      "inputs": [[44, 0, 0], [47, 0, 0]]
    }, 
    {
      "op": "_rminus_scalar", 
      "name": "_rminusscalar1", 
      "attrs": {"scalar": "1"}, 
      "inputs": [[48, 0, 0]]
    }, 
    {
      "op": "elemwise_mul", 
      "name": "_mul1", 
      "inputs": [[38, 0, 0], [49, 0, 0]]
    }, 
    {
      "op": "Reshape", 
      "name": "reshape10", 
      "attrs": {"shape": "(-1, 50, 1)"}, 
      "inputs": [[15, 0, 0]]
    }, 
    {
      "op": "FullyConnected", 
      "name": "fullyconnected3", 
      "attrs": {"num_hidden": "100"}, 
      "inputs": [[22, 1, 0], [32, 0, 0], [33, 0, 0]]
    }, 
    {
      "op": "Activation", 
      "name": "DKVMN->value_head_add_signal", 
      "attrs": {"act_type": "tanh"}, 
      "inputs": [[52, 0, 0]]
    }, 
    {
      "op": "Reshape", 
      "name": "reshape11", 
      "attrs": {"shape": "(-1, 1, 100)"}, 
      "inputs": [[53, 0, 0]]
    }, 
    {
      "op": "batch_dot", 
      "name": "batch_dot5", 
      "inputs": [[51, 0, 0], [54, 0, 0]]
    }, 
    {
      "op": "elemwise_add", 
      "name": "_plus1", 
      "inputs": [[50, 0, 0], [55, 0, 0]]
    }, 
    {
      "op": "batch_dot", 
      "name": "batch_dot6", 
      "inputs": [[43, 0, 0], [56, 0, 0]]
    }, 
    {
      "op": "Reshape", 
      "name": "reshape13", 
      "attrs": {"shape": "(-1, 100)"}, 
      "inputs": [[57, 0, 0]]
    }, 
    {
      "op": "FullyConnected", 
      "name": "similarity_score", 
      "attrs": {
        "no_bias": "True", 
        "num_hidden": "50"
      }, 
      "inputs": [[4, 3, 0], [5, 0, 0]]
    }, 
    {
      "op": "SoftmaxActivation", 
      "name": "softmaxactivation3", 
      "inputs": [[59, 0, 0]]
    }, 
    {
      "op": "Reshape", 
      "name": "reshape18", 
      "attrs": {"shape": "(-1, 1, 50)"}, 
      "inputs": [[60, 0, 0]]
    }, 
    {
      "op": "Reshape", 
      "name": "reshape14", 
      "attrs": {"shape": "(-1, 50, 1)"}, 
      "inputs": [[42, 0, 0]]
    }, 
    {
      "op": "FullyConnected", 
      "name": "fullyconnected4", 
      "attrs": {"num_hidden": "100"}, 
      "inputs": [[22, 2, 0], [23, 0, 0], [24, 0, 0]]
    }, 
    {
      "op": "Activation", 
      "name": "DKVMN->value_head_erase_signal", 
      "attrs": {"act_type": "sigmoid"}, 
      "inputs": [[63, 0, 0]]
    }, 
    {
      "op": "Reshape", 
      "name": "reshape15", 
      "attrs": {"shape": "(-1, 1, 100)"}, 
      "inputs": [[64, 0, 0]]
    }, 
    {
      "op": "batch_dot", 
      "name": "batch_dot7", 
      "inputs": [[62, 0, 0], [65, 0, 0]]
    }, 
    {
      "op": "_rminus_scalar", 
      "name": "_rminusscalar2", 
      "attrs": {"scalar": "1"}, 
      "inputs": [[66, 0, 0]]
    }, 
    {
      "op": "elemwise_mul", 
      "name": "_mul2", 
      "inputs": [[56, 0, 0], [67, 0, 0]]
    }, 
    {
      "op": "Reshape", 
      "name": "reshape16", 
      "attrs": {"shape": "(-1, 50, 1)"}, 
      "inputs": [[42, 0, 0]]
    }, 
    {
      "op": "FullyConnected", 
      "name": "fullyconnected5", 
      "attrs": {"num_hidden": "100"}, 
      "inputs": [[22, 2, 0], [32, 0, 0], [33, 0, 0]]
    }, 
    {
      "op": "Activation", 
      "name": "DKVMN->value_head_add_signal", 
      "attrs": {"act_type": "tanh"}, 
      "inputs": [[70, 0, 0]]
    }, 
    {
      "op": "Reshape", 
      "name": "reshape17", 
      "attrs": {"shape": "(-1, 1, 100)"}, 
      "inputs": [[71, 0, 0]]
    }, 
    {
      "op": "batch_dot", 
      "name": "batch_dot8", 
      "inputs": [[69, 0, 0], [72, 0, 0]]
    }, 
    {
      "op": "elemwise_add", 
      "name": "_plus2", 
      "inputs": [[68, 0, 0], [73, 0, 0]]
    }, 
    {
      "op": "batch_dot", 
      "name": "batch_dot9", 
      "inputs": [[61, 0, 0], [74, 0, 0]]
    }, 
    {
      "op": "Reshape", 
      "name": "reshape19", 
      "attrs": {"shape": "(-1, 100)"}, 
      "inputs": [[75, 0, 0]]
    }, 
    {
      "op": "FullyConnected", 
      "name": "similarity_score", 
      "attrs": {
        "no_bias": "True", 
        "num_hidden": "50"
      }, 
      "inputs": [[4, 4, 0], [5, 0, 0]]
    }, 
    {
      "op": "SoftmaxActivation", 
      "name": "softmaxactivation4", 
      "inputs": [[77, 0, 0]]
    }, 
    {
      "op": "Reshape", 
      "name": "reshape24", 
      "attrs": {"shape": "(-1, 1, 50)"}, 
      "inputs": [[78, 0, 0]]
    }, 
    {
      "op": "Reshape", 
      "name": "reshape20", 
      "attrs": {"shape": "(-1, 50, 1)"}, 
      "inputs": [[60, 0, 0]]
    }, 
    {
      "op": "FullyConnected", 
      "name": "fullyconnected6", 
      "attrs": {"num_hidden": "100"}, 
      "inputs": [[22, 3, 0], [23, 0, 0], [24, 0, 0]]
    }, 
    {
      "op": "Activation", 
      "name": "DKVMN->value_head_erase_signal", 
      "attrs": {"act_type": "sigmoid"}, 
      "inputs": [[81, 0, 0]]
    }, 
    {
      "op": "Reshape", 
      "name": "reshape21", 
      "attrs": {"shape": "(-1, 1, 100)"}, 
      "inputs": [[82, 0, 0]]
    }, 
    {
      "op": "batch_dot", 
      "name": "batch_dot10", 
      "inputs": [[80, 0, 0], [83, 0, 0]]
    }, 
    {
      "op": "_rminus_scalar", 
      "name": "_rminusscalar3", 
      "attrs": {"scalar": "1"}, 
      "inputs": [[84, 0, 0]]
    }, 
    {
      "op": "elemwise_mul", 
      "name": "_mul3", 
      "inputs": [[74, 0, 0], [85, 0, 0]]
    }, 
    {
      "op": "Reshape", 
      "name": "reshape22", 
      "attrs": {"shape": "(-1, 50, 1)"}, 
      "inputs": [[60, 0, 0]]
    }, 
    {
      "op": "FullyConnected", 
      "name": "fullyconnected7", 
      "attrs": {"num_hidden": "100"}, 
      "inputs": [[22, 3, 0], [32, 0, 0], [33, 0, 0]]
    }, 
    {
      "op": "Activation", 
      "name": "DKVMN->value_head_add_signal", 
      "attrs": {"act_type": "tanh"}, 
      "inputs": [[88, 0, 0]]
    }, 
    {
      "op": "Reshape", 
      "name": "reshape23", 
      "attrs": {"shape": "(-1, 1, 100)"}, 
      "inputs": [[89, 0, 0]]
    }, 
    {
      "op": "batch_dot", 
      "name": "batch_dot11", 
      "inputs": [[87, 0, 0], [90, 0, 0]]
    }, 
    {
      "op": "elemwise_add", 
      "name": "_plus3", 
      "inputs": [[86, 0, 0], [91, 0, 0]]
    }, 
    {
      "op": "batch_dot", 
      "name": "batch_dot12", 
      "inputs": [[79, 0, 0], [92, 0, 0]]
    }, 
    {
      "op": "Reshape", 
      "name": "reshape25", 
      "attrs": {"shape": "(-1, 100)"}, 
      "inputs": [[93, 0, 0]]
    }, 
    {
      "op": "FullyConnected", 
      "name": "similarity_score", 
      "attrs": {
        "no_bias": "True", 
        "num_hidden": "50"
      }, 
      "inputs": [[4, 5, 0], [5, 0, 0]]
    }, 
    {
      "op": "SoftmaxActivation", 
      "name": "softmaxactivation5", 
      "inputs": [[95, 0, 0]]
    }, 
    {
      "op": "Reshape", 
      "name": "reshape30", 
      "attrs": {"shape": "(-1, 1, 50)"}, 
      "inputs": [[96, 0, 0]]
    }, 
    {
      "op": "Reshape", 
      "name": "reshape26", 
      "attrs": {"shape": "(-1, 50, 1)"}, 
      "inputs": [[78, 0, 0]]
    }, 
    {
      "op": "FullyConnected", 
      "name": "fullyconnected8", 
      "attrs": {"num_hidden": "100"}, 
      "inputs": [[22, 4, 0], [23, 0, 0], [24, 0, 0]]
    }, 
    {
      "op": "Activation", 
      "name": "DKVMN->value_head_erase_signal", 
      "attrs": {"act_type": "sigmoid"}, 
      "inputs": [[99, 0, 0]]
    }, 
    {
      "op": "Reshape", 
      "name": "reshape27", 
      "attrs": {"shape": "(-1, 1, 100)"}, 
      "inputs": [[100, 0, 0]]
    }, 
    {
      "op": "batch_dot", 
      "name": "batch_dot13", 
      "inputs": [[98, 0, 0], [101, 0, 0]]
    }, 
    {
      "op": "_rminus_scalar", 
      "name": "_rminusscalar4", 
      "attrs": {"scalar": "1"}, 
      "inputs": [[102, 0, 0]]
    }, 
    {
      "op": "elemwise_mul", 
      "name": "_mul4", 
      "inputs": [[92, 0, 0], [103, 0, 0]]
    }, 
    {
      "op": "Reshape", 
      "name": "reshape28", 
      "attrs": {"shape": "(-1, 50, 1)"}, 
      "inputs": [[78, 0, 0]]
    }, 
    {
      "op": "FullyConnected", 
      "name": "fullyconnected9", 
      "attrs": {"num_hidden": "100"}, 
      "inputs": [[22, 4, 0], [32, 0, 0], [33, 0, 0]]
    }, 
    {
      "op": "Activation", 
      "name": "DKVMN->value_head_add_signal", 
      "attrs": {"act_type": "tanh"}, 
      "inputs": [[106, 0, 0]]
    }, 
    {
      "op": "Reshape", 
      "name": "reshape29", 
      "attrs": {"shape": "(-1, 1, 100)"}, 
      "inputs": [[107, 0, 0]]
    }, 
    {
      "op": "batch_dot", 
      "name": "batch_dot14", 
      "inputs": [[105, 0, 0], [108, 0, 0]]
    }, 
    {
      "op": "elemwise_add", 
      "name": "_plus4", 
      "inputs": [[104, 0, 0], [109, 0, 0]]
    }, 
    {
      "op": "batch_dot", 
      "name": "batch_dot15", 
      "inputs": [[97, 0, 0], [110, 0, 0]]
    }, 
    {
      "op": "Reshape", 
      "name": "reshape31", 
      "attrs": {"shape": "(-1, 100)"}, 
      "inputs": [[111, 0, 0]]
    }, 
    {
      "op": "FullyConnected", 
      "name": "similarity_score", 
      "attrs": {
        "no_bias": "True", 
        "num_hidden": "50"
      }, 
      "inputs": [[4, 6, 0], [5, 0, 0]]
    }, 
    {
      "op": "SoftmaxActivation", 
      "name": "softmaxactivation6", 
      "inputs": [[113, 0, 0]]
    }, 
    {
      "op": "Reshape", 
      "name": "reshape36", 
      "attrs": {"shape": "(-1, 1, 50)"}, 
      "inputs": [[114, 0, 0]]
    }, 
    {
      "op": "Reshape", 
      "name": "reshape32", 
      "attrs": {"shape": "(-1, 50, 1)"}, 
      "inputs": [[96, 0, 0]]
    }, 
    {
      "op": "FullyConnected", 
      "name": "fullyconnected10", 
      "attrs": {"num_hidden": "100"}, 
      "inputs": [[22, 5, 0], [23, 0, 0], [24, 0, 0]]
    }, 
    {
      "op": "Activation", 
      "name": "DKVMN->value_head_erase_signal", 
      "attrs": {"act_type": "sigmoid"}, 
      "inputs": [[117, 0, 0]]
    }, 
    {
      "op": "Reshape", 
      "name": "reshape33", 
      "attrs": {"shape": "(-1, 1, 100)"}, 
      "inputs": [[118, 0, 0]]
    }, 
    {
      "op": "batch_dot", 
      "name": "batch_dot16", 
      "inputs": [[116, 0, 0], [119, 0, 0]]
    }, 
    {
      "op": "_rminus_scalar", 
      "name": "_rminusscalar5", 
      "attrs": {"scalar": "1"}, 
      "inputs": [[120, 0, 0]]
    }, 
    {
      "op": "elemwise_mul", 
      "name": "_mul5", 
      "inputs": [[110, 0, 0], [121, 0, 0]]
    }, 
    {
      "op": "Reshape", 
      "name": "reshape34", 
      "attrs": {"shape": "(-1, 50, 1)"}, 
      "inputs": [[96, 0, 0]]
    }, 
    {
      "op": "FullyConnected", 
      "name": "fullyconnected11", 
      "attrs": {"num_hidden": "100"}, 
      "inputs": [[22, 5, 0], [32, 0, 0], [33, 0, 0]]
    }, 
    {
      "op": "Activation", 
      "name": "DKVMN->value_head_add_signal", 
      "attrs": {"act_type": "tanh"}, 
      "inputs": [[124, 0, 0]]
    }, 
    {
      "op": "Reshape", 
      "name": "reshape35", 
      "attrs": {"shape": "(-1, 1, 100)"}, 
      "inputs": [[125, 0, 0]]
    }, 
    {
      "op": "batch_dot", 
      "name": "batch_dot17", 
      "inputs": [[123, 0, 0], [126, 0, 0]]
    }, 
    {
      "op": "elemwise_add", 
      "name": "_plus5", 
      "inputs": [[122, 0, 0], [127, 0, 0]]
    }, 
    {
      "op": "batch_dot", 
      "name": "batch_dot18", 
      "inputs": [[115, 0, 0], [128, 0, 0]]
    }, 
    {
      "op": "Reshape", 
      "name": "reshape37", 
      "attrs": {"shape": "(-1, 100)"}, 
      "inputs": [[129, 0, 0]]
    }, 
    {
      "op": "FullyConnected", 
      "name": "similarity_score", 
      "attrs": {
        "no_bias": "True", 
        "num_hidden": "50"
      }, 
      "inputs": [[4, 7, 0], [5, 0, 0]]
    }, 
    {
      "op": "SoftmaxActivation", 
      "name": "softmaxactivation7", 
      "inputs": [[131, 0, 0]]
    }, 
    {
      "op": "Reshape", 
      "name": "reshape42", 
      "attrs": {"shape": "(-1, 1, 50)"}, 
      "inputs": [[132, 0, 0]]
    }, 
    {
      "op": "Reshape", 
      "name": "reshape38", 
      "attrs": {"shape": "(-1, 50, 1)"}, 
      "inputs": [[114, 0, 0]]
    }, 
    {
      "op": "FullyConnected", 
      "name": "fullyconnected12", 
      "attrs": {"num_hidden": "100"}, 
      "inputs": [[22, 6, 0], [23, 0, 0], [24, 0, 0]]
    }, 
    {
      "op": "Activation", 
      "name": "DKVMN->value_head_erase_signal", 
      "attrs": {"act_type": "sigmoid"}, 
      "inputs": [[135, 0, 0]]
    }, 
    {
      "op": "Reshape", 
      "name": "reshape39", 
      "attrs": {"shape": "(-1, 1, 100)"}, 
      "inputs": [[136, 0, 0]]
    }, 
    {
      "op": "batch_dot", 
      "name": "batch_dot19", 
      "inputs": [[134, 0, 0], [137, 0, 0]]
    }, 
    {
      "op": "_rminus_scalar", 
      "name": "_rminusscalar6", 
      "attrs": {"scalar": "1"}, 
      "inputs": [[138, 0, 0]]
    }, 
    {
      "op": "elemwise_mul", 
      "name": "_mul6", 
      "inputs": [[128, 0, 0], [139, 0, 0]]
    }, 
    {
      "op": "Reshape", 
      "name": "reshape40", 
      "attrs": {"shape": "(-1, 50, 1)"}, 
      "inputs": [[114, 0, 0]]
    }, 
    {
      "op": "FullyConnected", 
      "name": "fullyconnected13", 
      "attrs": {"num_hidden": "100"}, 
      "inputs": [[22, 6, 0], [32, 0, 0], [33, 0, 0]]
    }, 
    {
      "op": "Activation", 
      "name": "DKVMN->value_head_add_signal", 
      "attrs": {"act_type": "tanh"}, 
      "inputs": [[142, 0, 0]]
    }, 
    {
      "op": "Reshape", 
      "name": "reshape41", 
      "attrs": {"shape": "(-1, 1, 100)"}, 
      "inputs": [[143, 0, 0]]
    }, 
    {
      "op": "batch_dot", 
      "name": "batch_dot20", 
      "inputs": [[141, 0, 0], [144, 0, 0]]
    }, 
    {
      "op": "elemwise_add", 
      "name": "_plus6", 
      "inputs": [[140, 0, 0], [145, 0, 0]]
    }, 
    {
      "op": "batch_dot", 
      "name": "batch_dot21", 
      "inputs": [[133, 0, 0], [146, 0, 0]]
    }, 
    {
      "op": "Reshape", 
      "name": "reshape43", 
      "attrs": {"shape": "(-1, 100)"}, 
      "inputs": [[147, 0, 0]]
    }, 
    {
      "op": "FullyConnected", 
      "name": "similarity_score", 
      "attrs": {
        "no_bias": "True", 
        "num_hidden": "50"
      }, 
      "inputs": [[4, 8, 0], [5, 0, 0]]
    }, 
    {
      "op": "SoftmaxActivation", 
      "name": "softmaxactivation8", 
      "inputs": [[149, 0, 0]]
    }, 
    {
      "op": "Reshape", 
      "name": "reshape48", 
      "attrs": {"shape": "(-1, 1, 50)"}, 
      "inputs": [[150, 0, 0]]
    }, 
    {
      "op": "Reshape", 
      "name": "reshape44", 
      "attrs": {"shape": "(-1, 50, 1)"}, 
      "inputs": [[132, 0, 0]]
    }, 
    {
      "op": "FullyConnected", 
      "name": "fullyconnected14", 
      "attrs": {"num_hidden": "100"}, 
      "inputs": [[22, 7, 0], [23, 0, 0], [24, 0, 0]]
    }, 
    {
      "op": "Activation", 
      "name": "DKVMN->value_head_erase_signal", 
      "attrs": {"act_type": "sigmoid"}, 
      "inputs": [[153, 0, 0]]
    }, 
    {
      "op": "Reshape", 
      "name": "reshape45", 
      "attrs": {"shape": "(-1, 1, 100)"}, 
      "inputs": [[154, 0, 0]]
    }, 
    {
      "op": "batch_dot", 
      "name": "batch_dot22", 
      "inputs": [[152, 0, 0], [155, 0, 0]]
    }, 
    {
      "op": "_rminus_scalar", 
      "name": "_rminusscalar7", 
      "attrs": {"scalar": "1"}, 
      "inputs": [[156, 0, 0]]
    }, 
    {
      "op": "elemwise_mul", 
      "name": "_mul7", 
      "inputs": [[146, 0, 0], [157, 0, 0]]
    }, 
    {
      "op": "Reshape", 
      "name": "reshape46", 
      "attrs": {"shape": "(-1, 50, 1)"}, 
      "inputs": [[132, 0, 0]]
    }, 
    {
      "op": "FullyConnected", 
      "name": "fullyconnected15", 
      "attrs": {"num_hidden": "100"}, 
      "inputs": [[22, 7, 0], [32, 0, 0], [33, 0, 0]]
    }, 
    {
      "op": "Activation", 
      "name": "DKVMN->value_head_add_signal", 
      "attrs": {"act_type": "tanh"}, 
      "inputs": [[160, 0, 0]]
    }, 
    {
      "op": "Reshape", 
      "name": "reshape47", 
      "attrs": {"shape": "(-1, 1, 100)"}, 
      "inputs": [[161, 0, 0]]
    }, 
    {
      "op": "batch_dot", 
      "name": "batch_dot23", 
      "inputs": [[159, 0, 0], [162, 0, 0]]
    }, 
    {
      "op": "elemwise_add", 
      "name": "_plus7", 
      "inputs": [[158, 0, 0], [163, 0, 0]]
    }, 
    {
      "op": "batch_dot", 
      "name": "batch_dot24", 
      "inputs": [[151, 0, 0], [164, 0, 0]]
    }, 
    {
      "op": "Reshape", 
      "name": "reshape49", 
      "attrs": {"shape": "(-1, 100)"}, 
      "inputs": [[165, 0, 0]]
    }, 
    {
      "op": "FullyConnected", 
      "name": "similarity_score", 
      "attrs": {
        "no_bias": "True", 
        "num_hidden": "50"
      }, 
      "inputs": [[4, 9, 0], [5, 0, 0]]
    }, 
    {
      "op": "SoftmaxActivation", 
      "name": "softmaxactivation9", 
      "inputs": [[167, 0, 0]]
    }, 
    {
      "op": "Reshape", 
      "name": "reshape54", 
      "attrs": {"shape": "(-1, 1, 50)"}, 
      "inputs": [[168, 0, 0]]
    }, 
    {
      "op": "Reshape", 
      "name": "reshape50", 
      "attrs": {"shape": "(-1, 50, 1)"}, 
      "inputs": [[150, 0, 0]]
    }, 
    {
      "op": "FullyConnected", 
      "name": "fullyconnected16", 
      "attrs": {"num_hidden": "100"}, 
      "inputs": [[22, 8, 0], [23, 0, 0], [24, 0, 0]]
    }, 
    {
      "op": "Activation", 
      "name": "DKVMN->value_head_erase_signal", 
      "attrs": {"act_type": "sigmoid"}, 
      "inputs": [[171, 0, 0]]
    }, 
    {
      "op": "Reshape", 
      "name": "reshape51", 
      "attrs": {"shape": "(-1, 1, 100)"}, 
      "inputs": [[172, 0, 0]]
    }, 
    {
      "op": "batch_dot", 
      "name": "batch_dot25", 
      "inputs": [[170, 0, 0], [173, 0, 0]]
    }, 
    {
      "op": "_rminus_scalar", 
      "name": "_rminusscalar8", 
      "attrs": {"scalar": "1"}, 
      "inputs": [[174, 0, 0]]
    }, 
    {
      "op": "elemwise_mul", 
      "name": "_mul8", 
      "inputs": [[164, 0, 0], [175, 0, 0]]
    }, 
    {
      "op": "Reshape", 
      "name": "reshape52", 
      "attrs": {"shape": "(-1, 50, 1)"}, 
      "inputs": [[150, 0, 0]]
    }, 
    {
      "op": "FullyConnected", 
      "name": "fullyconnected17", 
      "attrs": {"num_hidden": "100"}, 
      "inputs": [[22, 8, 0], [32, 0, 0], [33, 0, 0]]
    }, 
    {
      "op": "Activation", 
      "name": "DKVMN->value_head_add_signal", 
      "attrs": {"act_type": "tanh"}, 
      "inputs": [[178, 0, 0]]
    }, 
    {
      "op": "Reshape", 
      "name": "reshape53", 
      "attrs": {"shape": "(-1, 1, 100)"}, 
      "inputs": [[179, 0, 0]]
    }, 
    {
      "op": "batch_dot", 
      "name": "batch_dot26", 
      "inputs": [[177, 0, 0], [180, 0, 0]]
    }, 
    {
      "op": "elemwise_add", 
      "name": "_plus8", 
      "inputs": [[176, 0, 0], [181, 0, 0]]
    }, 
    {
      "op": "batch_dot", 
      "name": "batch_dot27", 
      "inputs": [[169, 0, 0], [182, 0, 0]]
    }, 
    {
      "op": "Reshape", 
      "name": "reshape55", 
      "attrs": {"shape": "(-1, 100)"}, 
      "inputs": [[183, 0, 0]]
    }, 
    {
      "op": "FullyConnected", 
      "name": "similarity_score", 
      "attrs": {
        "no_bias": "True", 
        "num_hidden": "50"
      }, 
      "inputs": [[4, 10, 0], [5, 0, 0]]
    }, 
    {
      "op": "SoftmaxActivation", 
      "name": "softmaxactivation10", 
      "inputs": [[185, 0, 0]]
    }, 
    {
      "op": "Reshape", 
      "name": "reshape60", 
      "attrs": {"shape": "(-1, 1, 50)"}, 
      "inputs": [[186, 0, 0]]
    }, 
    {
      "op": "Reshape", 
      "name": "reshape56", 
      "attrs": {"shape": "(-1, 50, 1)"}, 
      "inputs": [[168, 0, 0]]
    }, 
    {
      "op": "FullyConnected", 
      "name": "fullyconnected18", 
      "attrs": {"num_hidden": "100"}, 
      "inputs": [[22, 9, 0], [23, 0, 0], [24, 0, 0]]
    }, 
    {
      "op": "Activation", 
      "name": "DKVMN->value_head_erase_signal", 
      "attrs": {"act_type": "sigmoid"}, 
      "inputs": [[189, 0, 0]]
    }, 
    {
      "op": "Reshape", 
      "name": "reshape57", 
      "attrs": {"shape": "(-1, 1, 100)"}, 
      "inputs": [[190, 0, 0]]
    }, 
    {
      "op": "batch_dot", 
      "name": "batch_dot28", 
      "inputs": [[188, 0, 0], [191, 0, 0]]
    }, 
    {
      "op": "_rminus_scalar", 
      "name": "_rminusscalar9", 
      "attrs": {"scalar": "1"}, 
      "inputs": [[192, 0, 0]]
    }, 
    {
      "op": "elemwise_mul", 
      "name": "_mul9", 
      "inputs": [[182, 0, 0], [193, 0, 0]]
    }, 
    {
      "op": "Reshape", 
      "name": "reshape58", 
      "attrs": {"shape": "(-1, 50, 1)"}, 
      "inputs": [[168, 0, 0]]
    }, 
    {
      "op": "FullyConnected", 
      "name": "fullyconnected19", 
      "attrs": {"num_hidden": "100"}, 
      "inputs": [[22, 9, 0], [32, 0, 0], [33, 0, 0]]
    }, 
    {
      "op": "Activation", 
      "name": "DKVMN->value_head_add_signal", 
      "attrs": {"act_type": "tanh"}, 
      "inputs": [[196, 0, 0]]
    }, 
    {
      "op": "Reshape", 
      "name": "reshape59", 
      "attrs": {"shape": "(-1, 1, 100)"}, 
      "inputs": [[197, 0, 0]]
    }, 
    {
      "op": "batch_dot", 
      "name": "batch_dot29", 
      "inputs": [[195, 0, 0], [198, 0, 0]]
    }, 
    {
      "op": "elemwise_add", 
      "name": "_plus9", 
      "inputs": [[194, 0, 0], [199, 0, 0]]
    }, 
    {
      "op": "batch_dot", 
      "name": "batch_dot30", 
      "inputs": [[187, 0, 0], [200, 0, 0]]
    }, 
    {
      "op": "Reshape", 
      "name": "reshape61", 
      "attrs": {"shape": "(-1, 100)"}, 
      "inputs": [[201, 0, 0]]
    }, 
    {
      "op": "FullyConnected", 
      "name": "similarity_score", 
      "attrs": {
        "no_bias": "True", 
        "num_hidden": "50"
      }, 
      "inputs": [[4, 11, 0], [5, 0, 0]]
    }, 
    {
      "op": "SoftmaxActivation", 
      "name": "softmaxactivation11", 
      "inputs": [[203, 0, 0]]
    }, 
    {
      "op": "Reshape", 
      "name": "reshape66", 
      "attrs": {"shape": "(-1, 1, 50)"}, 
      "inputs": [[204, 0, 0]]
    }, 
    {
      "op": "Reshape", 
      "name": "reshape62", 
      "attrs": {"shape": "(-1, 50, 1)"}, 
      "inputs": [[186, 0, 0]]
    }, 
    {
      "op": "FullyConnected", 
      "name": "fullyconnected20", 
      "attrs": {"num_hidden": "100"}, 
      "inputs": [[22, 10, 0], [23, 0, 0], [24, 0, 0]]
    }, 
    {
      "op": "Activation", 
      "name": "DKVMN->value_head_erase_signal", 
      "attrs": {"act_type": "sigmoid"}, 
      "inputs": [[207, 0, 0]]
    }, 
    {
      "op": "Reshape", 
      "name": "reshape63", 
      "attrs": {"shape": "(-1, 1, 100)"}, 
      "inputs": [[208, 0, 0]]
    }, 
    {
      "op": "batch_dot", 
      "name": "batch_dot31", 
      "inputs": [[206, 0, 0], [209, 0, 0]]
    }, 
    {
      "op": "_rminus_scalar", 
      "name": "_rminusscalar10", 
      "attrs": {"scalar": "1"}, 
      "inputs": [[210, 0, 0]]
    }, 
    {
      "op": "elemwise_mul", 
      "name": "_mul10", 
      "inputs": [[200, 0, 0], [211, 0, 0]]
    }, 
    {
      "op": "Reshape", 
      "name": "reshape64", 
      "attrs": {"shape": "(-1, 50, 1)"}, 
      "inputs": [[186, 0, 0]]
    }, 
    {
      "op": "FullyConnected", 
      "name": "fullyconnected21", 
      "attrs": {"num_hidden": "100"}, 
      "inputs": [[22, 10, 0], [32, 0, 0], [33, 0, 0]]
    }, 
    {
      "op": "Activation", 
      "name": "DKVMN->value_head_add_signal", 
      "attrs": {"act_type": "tanh"}, 
      "inputs": [[214, 0, 0]]
    }, 
    {
      "op": "Reshape", 
      "name": "reshape65", 
      "attrs": {"shape": "(-1, 1, 100)"}, 
      "inputs": [[215, 0, 0]]
    }, 
    {
      "op": "batch_dot", 
      "name": "batch_dot32", 
      "inputs": [[213, 0, 0], [216, 0, 0]]
    }, 
    {
      "op": "elemwise_add", 
      "name": "_plus10", 
      "inputs": [[212, 0, 0], [217, 0, 0]]
    }, 
    {
      "op": "batch_dot", 
      "name": "batch_dot33", 
      "inputs": [[205, 0, 0], [218, 0, 0]]
    }, 
    {
      "op": "Reshape", 
      "name": "reshape67", 
      "attrs": {"shape": "(-1, 100)"}, 
      "inputs": [[219, 0, 0]]
    }, 
    {
      "op": "FullyConnected", 
      "name": "similarity_score", 
      "attrs": {
        "no_bias": "True", 
        "num_hidden": "50"
      }, 
      "inputs": [[4, 12, 0], [5, 0, 0]]
    }, 
    {
      "op": "SoftmaxActivation", 
      "name": "softmaxactivation12", 
      "inputs": [[221, 0, 0]]
    }, 
    {
      "op": "Reshape", 
      "name": "reshape72", 
      "attrs": {"shape": "(-1, 1, 50)"}, 
      "inputs": [[222, 0, 0]]
    }, 
    {
      "op": "Reshape", 
      "name": "reshape68", 
      "attrs": {"shape": "(-1, 50, 1)"}, 
      "inputs": [[204, 0, 0]]
    }, 
    {
      "op": "FullyConnected", 
      "name": "fullyconnected22", 
      "attrs": {"num_hidden": "100"}, 
      "inputs": [[22, 11, 0], [23, 0, 0], [24, 0, 0]]
    }, 
    {
      "op": "Activation", 
      "name": "DKVMN->value_head_erase_signal", 
      "attrs": {"act_type": "sigmoid"}, 
      "inputs": [[225, 0, 0]]
    }, 
    {
      "op": "Reshape", 
      "name": "reshape69", 
      "attrs": {"shape": "(-1, 1, 100)"}, 
      "inputs": [[226, 0, 0]]
    }, 
    {
      "op": "batch_dot", 
      "name": "batch_dot34", 
      "inputs": [[224, 0, 0], [227, 0, 0]]
    }, 
    {
      "op": "_rminus_scalar", 
      "name": "_rminusscalar11", 
      "attrs": {"scalar": "1"}, 
      "inputs": [[228, 0, 0]]
    }, 
    {
      "op": "elemwise_mul", 
      "name": "_mul11", 
      "inputs": [[218, 0, 0], [229, 0, 0]]
    }, 
    {
      "op": "Reshape", 
      "name": "reshape70", 
      "attrs": {"shape": "(-1, 50, 1)"}, 
      "inputs": [[204, 0, 0]]
    }, 
    {
      "op": "FullyConnected", 
      "name": "fullyconnected23", 
      "attrs": {"num_hidden": "100"}, 
      "inputs": [[22, 11, 0], [32, 0, 0], [33, 0, 0]]
    }, 
    {
      "op": "Activation", 
      "name": "DKVMN->value_head_add_signal", 
      "attrs": {"act_type": "tanh"}, 
      "inputs": [[232, 0, 0]]
    }, 
    {
      "op": "Reshape", 
      "name": "reshape71", 
      "attrs": {"shape": "(-1, 1, 100)"}, 
      "inputs": [[233, 0, 0]]
    }, 
    {
      "op": "batch_dot", 
      "name": "batch_dot35", 
      "inputs": [[231, 0, 0], [234, 0, 0]]
    }, 
    {
      "op": "elemwise_add", 
      "name": "_plus11", 
      "inputs": [[230, 0, 0], [235, 0, 0]]
    }, 
    {
      "op": "batch_dot", 
      "name": "batch_dot36", 
      "inputs": [[223, 0, 0], [236, 0, 0]]
    }, 
    {
      "op": "Reshape", 
      "name": "reshape73", 
      "attrs": {"shape": "(-1, 100)"}, 
      "inputs": [[237, 0, 0]]
    }, 
    {
      "op": "FullyConnected", 
      "name": "similarity_score", 
      "attrs": {
        "no_bias": "True", 
        "num_hidden": "50"
      }, 
      "inputs": [[4, 13, 0], [5, 0, 0]]
    }, 
    {
      "op": "SoftmaxActivation", 
      "name": "softmaxactivation13", 
      "inputs": [[239, 0, 0]]
    }, 
    {
      "op": "Reshape", 
      "name": "reshape78", 
      "attrs": {"shape": "(-1, 1, 50)"}, 
      "inputs": [[240, 0, 0]]
    }, 
    {
      "op": "Reshape", 
      "name": "reshape74", 
      "attrs": {"shape": "(-1, 50, 1)"}, 
      "inputs": [[222, 0, 0]]
    }, 
    {
      "op": "FullyConnected", 
      "name": "fullyconnected24", 
      "attrs": {"num_hidden": "100"}, 
      "inputs": [[22, 12, 0], [23, 0, 0], [24, 0, 0]]
    }, 
    {
      "op": "Activation", 
      "name": "DKVMN->value_head_erase_signal", 
      "attrs": {"act_type": "sigmoid"}, 
      "inputs": [[243, 0, 0]]
    }, 
    {
      "op": "Reshape", 
      "name": "reshape75", 
      "attrs": {"shape": "(-1, 1, 100)"}, 
      "inputs": [[244, 0, 0]]
    }, 
    {
      "op": "batch_dot", 
      "name": "batch_dot37", 
      "inputs": [[242, 0, 0], [245, 0, 0]]
    }, 
    {
      "op": "_rminus_scalar", 
      "name": "_rminusscalar12", 
      "attrs": {"scalar": "1"}, 
      "inputs": [[246, 0, 0]]
    }, 
    {
      "op": "elemwise_mul", 
      "name": "_mul12", 
      "inputs": [[236, 0, 0], [247, 0, 0]]
    }, 
    {
      "op": "Reshape", 
      "name": "reshape76", 
      "attrs": {"shape": "(-1, 50, 1)"}, 
      "inputs": [[222, 0, 0]]
    }, 
    {
      "op": "FullyConnected", 
      "name": "fullyconnected25", 
      "attrs": {"num_hidden": "100"}, 
      "inputs": [[22, 12, 0], [32, 0, 0], [33, 0, 0]]
    }, 
    {
      "op": "Activation", 
      "name": "DKVMN->value_head_add_signal", 
      "attrs": {"act_type": "tanh"}, 
      "inputs": [[250, 0, 0]]
    }, 
    {
      "op": "Reshape", 
      "name": "reshape77", 
      "attrs": {"shape": "(-1, 1, 100)"}, 
      "inputs": [[251, 0, 0]]
    }, 
    {
      "op": "batch_dot", 
      "name": "batch_dot38", 
      "inputs": [[249, 0, 0], [252, 0, 0]]
    }, 
    {
      "op": "elemwise_add", 
      "name": "_plus12", 
      "inputs": [[248, 0, 0], [253, 0, 0]]
    }, 
    {
      "op": "batch_dot", 
      "name": "batch_dot39", 
      "inputs": [[241, 0, 0], [254, 0, 0]]
    }, 
    {
      "op": "Reshape", 
      "name": "reshape79", 
      "attrs": {"shape": "(-1, 100)"}, 
      "inputs": [[255, 0, 0]]
    }, 
    {
      "op": "FullyConnected", 
      "name": "similarity_score", 
      "attrs": {
        "no_bias": "True", 
        "num_hidden": "50"
      }, 
      "inputs": [[4, 14, 0], [5, 0, 0]]
    }, 
    {
      "op": "SoftmaxActivation", 
      "name": "softmaxactivation14", 
      "inputs": [[257, 0, 0]]
    }, 
    {
      "op": "Reshape", 
      "name": "reshape84", 
      "attrs": {"shape": "(-1, 1, 50)"}, 
      "inputs": [[258, 0, 0]]
    }, 
    {
      "op": "Reshape", 
      "name": "reshape80", 
      "attrs": {"shape": "(-1, 50, 1)"}, 
      "inputs": [[240, 0, 0]]
    }, 
    {
      "op": "FullyConnected", 
      "name": "fullyconnected26", 
      "attrs": {"num_hidden": "100"}, 
      "inputs": [[22, 13, 0], [23, 0, 0], [24, 0, 0]]
    }, 
    {
      "op": "Activation", 
      "name": "DKVMN->value_head_erase_signal", 
      "attrs": {"act_type": "sigmoid"}, 
      "inputs": [[261, 0, 0]]
    }, 
    {
      "op": "Reshape", 
      "name": "reshape81", 
      "attrs": {"shape": "(-1, 1, 100)"}, 
      "inputs": [[262, 0, 0]]
    }, 
    {
      "op": "batch_dot", 
      "name": "batch_dot40", 
      "inputs": [[260, 0, 0], [263, 0, 0]]
    }, 
    {
      "op": "_rminus_scalar", 
      "name": "_rminusscalar13", 
      "attrs": {"scalar": "1"}, 
      "inputs": [[264, 0, 0]]
    }, 
    {
      "op": "elemwise_mul", 
      "name": "_mul13", 
      "inputs": [[254, 0, 0], [265, 0, 0]]
    }, 
    {
      "op": "Reshape", 
      "name": "reshape82", 
      "attrs": {"shape": "(-1, 50, 1)"}, 
      "inputs": [[240, 0, 0]]
    }, 
    {
      "op": "FullyConnected", 
      "name": "fullyconnected27", 
      "attrs": {"num_hidden": "100"}, 
      "inputs": [[22, 13, 0], [32, 0, 0], [33, 0, 0]]
    }, 
    {
      "op": "Activation", 
      "name": "DKVMN->value_head_add_signal", 
      "attrs": {"act_type": "tanh"}, 
      "inputs": [[268, 0, 0]]
    }, 
    {
      "op": "Reshape", 
      "name": "reshape83", 
      "attrs": {"shape": "(-1, 1, 100)"}, 
      "inputs": [[269, 0, 0]]
    }, 
    {
      "op": "batch_dot", 
      "name": "batch_dot41", 
      "inputs": [[267, 0, 0], [270, 0, 0]]
    }, 
    {
      "op": "elemwise_add", 
      "name": "_plus13", 
      "inputs": [[266, 0, 0], [271, 0, 0]]
    }, 
    {
      "op": "batch_dot", 
      "name": "batch_dot42", 
      "inputs": [[259, 0, 0], [272, 0, 0]]
    }, 
    {
      "op": "Reshape", 
      "name": "reshape85", 
      "attrs": {"shape": "(-1, 100)"}, 
      "inputs": [[273, 0, 0]]
    }, 
    {
      "op": "FullyConnected", 
      "name": "similarity_score", 
      "attrs": {
        "no_bias": "True", 
        "num_hidden": "50"
      }, 
      "inputs": [[4, 15, 0], [5, 0, 0]]
    }, 
    {
      "op": "SoftmaxActivation", 
      "name": "softmaxactivation15", 
      "inputs": [[275, 0, 0]]
    }, 
    {
      "op": "Reshape", 
      "name": "reshape90", 
      "attrs": {"shape": "(-1, 1, 50)"}, 
      "inputs": [[276, 0, 0]]
    }, 
    {
      "op": "Reshape", 
      "name": "reshape86", 
      "attrs": {"shape": "(-1, 50, 1)"}, 
      "inputs": [[258, 0, 0]]
    }, 
    {
      "op": "FullyConnected", 
      "name": "fullyconnected28", 
      "attrs": {"num_hidden": "100"}, 
      "inputs": [[22, 14, 0], [23, 0, 0], [24, 0, 0]]
    }, 
    {
      "op": "Activation", 
      "name": "DKVMN->value_head_erase_signal", 
      "attrs": {"act_type": "sigmoid"}, 
      "inputs": [[279, 0, 0]]
    }, 
    {
      "op": "Reshape", 
      "name": "reshape87", 
      "attrs": {"shape": "(-1, 1, 100)"}, 
      "inputs": [[280, 0, 0]]
    }, 
    {
      "op": "batch_dot", 
      "name": "batch_dot43", 
      "inputs": [[278, 0, 0], [281, 0, 0]]
    }, 
    {
      "op": "_rminus_scalar", 
      "name": "_rminusscalar14", 
      "attrs": {"scalar": "1"}, 
      "inputs": [[282, 0, 0]]
    }, 
    {
      "op": "elemwise_mul", 
      "name": "_mul14", 
      "inputs": [[272, 0, 0], [283, 0, 0]]
    }, 
    {
      "op": "Reshape", 
      "name": "reshape88", 
      "attrs": {"shape": "(-1, 50, 1)"}, 
      "inputs": [[258, 0, 0]]
    }, 
    {
      "op": "FullyConnected", 
      "name": "fullyconnected29", 
      "attrs": {"num_hidden": "100"}, 
      "inputs": [[22, 14, 0], [32, 0, 0], [33, 0, 0]]
    }, 
    {
      "op": "Activation", 
      "name": "DKVMN->value_head_add_signal", 
      "attrs": {"act_type": "tanh"}, 
      "inputs": [[286, 0, 0]]
    }, 
    {
      "op": "Reshape", 
      "name": "reshape89", 
      "attrs": {"shape": "(-1, 1, 100)"}, 
      "inputs": [[287, 0, 0]]
    }, 
    {
      "op": "batch_dot", 
      "name": "batch_dot44", 
      "inputs": [[285, 0, 0], [288, 0, 0]]
    }, 
    {
      "op": "elemwise_add", 
      "name": "_plus14", 
      "inputs": [[284, 0, 0], [289, 0, 0]]
    }, 
    {
      "op": "batch_dot", 
      "name": "batch_dot45", 
      "inputs": [[277, 0, 0], [290, 0, 0]]
    }, 
    {
      "op": "Reshape", 
      "name": "reshape91", 
      "attrs": {"shape": "(-1, 100)"}, 
      "inputs": [[291, 0, 0]]
    }, 
    {
      "op": "FullyConnected", 
      "name": "similarity_score", 
      "attrs": {
        "no_bias": "True", 
        "num_hidden": "50"
      }, 
      "inputs": [[4, 16, 0], [5, 0, 0]]
    }, 
    {
      "op": "SoftmaxActivation", 
      "name": "softmaxactivation16", 
      "inputs": [[293, 0, 0]]
    }, 
    {
      "op": "Reshape", 
      "name": "reshape96", 
      "attrs": {"shape": "(-1, 1, 50)"}, 
      "inputs": [[294, 0, 0]]
    }, 
    {
      "op": "Reshape", 
      "name": "reshape92", 
      "attrs": {"shape": "(-1, 50, 1)"}, 
      "inputs": [[276, 0, 0]]
    }, 
    {
      "op": "FullyConnected", 
      "name": "fullyconnected30", 
      "attrs": {"num_hidden": "100"}, 
      "inputs": [[22, 15, 0], [23, 0, 0], [24, 0, 0]]
    }, 
    {
      "op": "Activation", 
      "name": "DKVMN->value_head_erase_signal", 
      "attrs": {"act_type": "sigmoid"}, 
      "inputs": [[297, 0, 0]]
    }, 
    {
      "op": "Reshape", 
      "name": "reshape93", 
      "attrs": {"shape": "(-1, 1, 100)"}, 
      "inputs": [[298, 0, 0]]
    }, 
    {
      "op": "batch_dot", 
      "name": "batch_dot46", 
      "inputs": [[296, 0, 0], [299, 0, 0]]
    }, 
    {
      "op": "_rminus_scalar", 
      "name": "_rminusscalar15", 
      "attrs": {"scalar": "1"}, 
      "inputs": [[300, 0, 0]]
    }, 
    {
      "op": "elemwise_mul", 
      "name": "_mul15", 
      "inputs": [[290, 0, 0], [301, 0, 0]]
    }, 
    {
      "op": "Reshape", 
      "name": "reshape94", 
      "attrs": {"shape": "(-1, 50, 1)"}, 
      "inputs": [[276, 0, 0]]
    }, 
    {
      "op": "FullyConnected", 
      "name": "fullyconnected31", 
      "attrs": {"num_hidden": "100"}, 
      "inputs": [[22, 15, 0], [32, 0, 0], [33, 0, 0]]
    }, 
    {
      "op": "Activation", 
      "name": "DKVMN->value_head_add_signal", 
      "attrs": {"act_type": "tanh"}, 
      "inputs": [[304, 0, 0]]
    }, 
    {
      "op": "Reshape", 
      "name": "reshape95", 
      "attrs": {"shape": "(-1, 1, 100)"}, 
      "inputs": [[305, 0, 0]]
    }, 
    {
      "op": "batch_dot", 
      "name": "batch_dot47", 
      "inputs": [[303, 0, 0], [306, 0, 0]]
    }, 
    {
      "op": "elemwise_add", 
      "name": "_plus15", 
      "inputs": [[302, 0, 0], [307, 0, 0]]
    }, 
    {
      "op": "batch_dot", 
      "name": "batch_dot48", 
      "inputs": [[295, 0, 0], [308, 0, 0]]
    }, 
    {
      "op": "Reshape", 
      "name": "reshape97", 
      "attrs": {"shape": "(-1, 100)"}, 
      "inputs": [[309, 0, 0]]
    }, 
    {
      "op": "FullyConnected", 
      "name": "similarity_score", 
      "attrs": {
        "no_bias": "True", 
        "num_hidden": "50"
      }, 
      "inputs": [[4, 17, 0], [5, 0, 0]]
    }, 
    {
      "op": "SoftmaxActivation", 
      "name": "softmaxactivation17", 
      "inputs": [[311, 0, 0]]
    }, 
    {
      "op": "Reshape", 
      "name": "reshape102", 
      "attrs": {"shape": "(-1, 1, 50)"}, 
      "inputs": [[312, 0, 0]]
    }, 
    {
      "op": "Reshape", 
      "name": "reshape98", 
      "attrs": {"shape": "(-1, 50, 1)"}, 
      "inputs": [[294, 0, 0]]
    }, 
    {
      "op": "FullyConnected", 
      "name": "fullyconnected32", 
      "attrs": {"num_hidden": "100"}, 
      "inputs": [[22, 16, 0], [23, 0, 0], [24, 0, 0]]
    }, 
    {
      "op": "Activation", 
      "name": "DKVMN->value_head_erase_signal", 
      "attrs": {"act_type": "sigmoid"}, 
      "inputs": [[315, 0, 0]]
    }, 
    {
      "op": "Reshape", 
      "name": "reshape99", 
      "attrs": {"shape": "(-1, 1, 100)"}, 
      "inputs": [[316, 0, 0]]
    }, 
    {
      "op": "batch_dot", 
      "name": "batch_dot49", 
      "inputs": [[314, 0, 0], [317, 0, 0]]
    }, 
    {
      "op": "_rminus_scalar", 
      "name": "_rminusscalar16", 
      "attrs": {"scalar": "1"}, 
      "inputs": [[318, 0, 0]]
    }, 
    {
      "op": "elemwise_mul", 
      "name": "_mul16", 
      "inputs": [[308, 0, 0], [319, 0, 0]]
    }, 
    {
      "op": "Reshape", 
      "name": "reshape100", 
      "attrs": {"shape": "(-1, 50, 1)"}, 
      "inputs": [[294, 0, 0]]
    }, 
    {
      "op": "FullyConnected", 
      "name": "fullyconnected33", 
      "attrs": {"num_hidden": "100"}, 
      "inputs": [[22, 16, 0], [32, 0, 0], [33, 0, 0]]
    }, 
    {
      "op": "Activation", 
      "name": "DKVMN->value_head_add_signal", 
      "attrs": {"act_type": "tanh"}, 
      "inputs": [[322, 0, 0]]
    }, 
    {
      "op": "Reshape", 
      "name": "reshape101", 
      "attrs": {"shape": "(-1, 1, 100)"}, 
      "inputs": [[323, 0, 0]]
    }, 
    {
      "op": "batch_dot", 
      "name": "batch_dot50", 
      "inputs": [[321, 0, 0], [324, 0, 0]]
    }, 
    {
      "op": "elemwise_add", 
      "name": "_plus16", 
      "inputs": [[320, 0, 0], [325, 0, 0]]
    }, 
    {
      "op": "batch_dot", 
      "name": "batch_dot51", 
      "inputs": [[313, 0, 0], [326, 0, 0]]
    }, 
    {
      "op": "Reshape", 
      "name": "reshape103", 
      "attrs": {"shape": "(-1, 100)"}, 
      "inputs": [[327, 0, 0]]
    }, 
    {
      "op": "FullyConnected", 
      "name": "similarity_score", 
      "attrs": {
        "no_bias": "True", 
        "num_hidden": "50"
      }, 
      "inputs": [[4, 18, 0], [5, 0, 0]]
    }, 
    {
      "op": "SoftmaxActivation", 
      "name": "softmaxactivation18", 
      "inputs": [[329, 0, 0]]
    }, 
    {
      "op": "Reshape", 
      "name": "reshape108", 
      "attrs": {"shape": "(-1, 1, 50)"}, 
      "inputs": [[330, 0, 0]]
    }, 
    {
      "op": "Reshape", 
      "name": "reshape104", 
      "attrs": {"shape": "(-1, 50, 1)"}, 
      "inputs": [[312, 0, 0]]
    }, 
    {
      "op": "FullyConnected", 
      "name": "fullyconnected34", 
      "attrs": {"num_hidden": "100"}, 
      "inputs": [[22, 17, 0], [23, 0, 0], [24, 0, 0]]
    }, 
    {
      "op": "Activation", 
      "name": "DKVMN->value_head_erase_signal", 
      "attrs": {"act_type": "sigmoid"}, 
      "inputs": [[333, 0, 0]]
    }, 
    {
      "op": "Reshape", 
      "name": "reshape105", 
      "attrs": {"shape": "(-1, 1, 100)"}, 
      "inputs": [[334, 0, 0]]
    }, 
    {
      "op": "batch_dot", 
      "name": "batch_dot52", 
      "inputs": [[332, 0, 0], [335, 0, 0]]
    }, 
    {
      "op": "_rminus_scalar", 
      "name": "_rminusscalar17", 
      "attrs": {"scalar": "1"}, 
      "inputs": [[336, 0, 0]]
    }, 
    {
      "op": "elemwise_mul", 
      "name": "_mul17", 
      "inputs": [[326, 0, 0], [337, 0, 0]]
    }, 
    {
      "op": "Reshape", 
      "name": "reshape106", 
      "attrs": {"shape": "(-1, 50, 1)"}, 
      "inputs": [[312, 0, 0]]
    }, 
    {
      "op": "FullyConnected", 
      "name": "fullyconnected35", 
      "attrs": {"num_hidden": "100"}, 
      "inputs": [[22, 17, 0], [32, 0, 0], [33, 0, 0]]
    }, 
    {
      "op": "Activation", 
      "name": "DKVMN->value_head_add_signal", 
      "attrs": {"act_type": "tanh"}, 
      "inputs": [[340, 0, 0]]
    }, 
    {
      "op": "Reshape", 
      "name": "reshape107", 
      "attrs": {"shape": "(-1, 1, 100)"}, 
      "inputs": [[341, 0, 0]]
    }, 
    {
      "op": "batch_dot", 
      "name": "batch_dot53", 
      "inputs": [[339, 0, 0], [342, 0, 0]]
    }, 
    {
      "op": "elemwise_add", 
      "name": "_plus17", 
      "inputs": [[338, 0, 0], [343, 0, 0]]
    }, 
    {
      "op": "batch_dot", 
      "name": "batch_dot54", 
      "inputs": [[331, 0, 0], [344, 0, 0]]
    }, 
    {
      "op": "Reshape", 
      "name": "reshape109", 
      "attrs": {"shape": "(-1, 100)"}, 
      "inputs": [[345, 0, 0]]
    }, 
    {
      "op": "FullyConnected", 
      "name": "similarity_score", 
      "attrs": {
        "no_bias": "True", 
        "num_hidden": "50"
      }, 
      "inputs": [[4, 19, 0], [5, 0, 0]]
    }, 
    {
      "op": "SoftmaxActivation", 
      "name": "softmaxactivation19", 
      "inputs": [[347, 0, 0]]
    }, 
    {
      "op": "Reshape", 
      "name": "reshape114", 
      "attrs": {"shape": "(-1, 1, 50)"}, 
      "inputs": [[348, 0, 0]]
    }, 
    {
      "op": "Reshape", 
      "name": "reshape110", 
      "attrs": {"shape": "(-1, 50, 1)"}, 
      "inputs": [[330, 0, 0]]
    }, 
    {
      "op": "FullyConnected", 
      "name": "fullyconnected36", 
      "attrs": {"num_hidden": "100"}, 
      "inputs": [[22, 18, 0], [23, 0, 0], [24, 0, 0]]
    }, 
    {
      "op": "Activation", 
      "name": "DKVMN->value_head_erase_signal", 
      "attrs": {"act_type": "sigmoid"}, 
      "inputs": [[351, 0, 0]]
    }, 
    {
      "op": "Reshape", 
      "name": "reshape111", 
      "attrs": {"shape": "(-1, 1, 100)"}, 
      "inputs": [[352, 0, 0]]
    }, 
    {
      "op": "batch_dot", 
      "name": "batch_dot55", 
      "inputs": [[350, 0, 0], [353, 0, 0]]
    }, 
    {
      "op": "_rminus_scalar", 
      "name": "_rminusscalar18", 
      "attrs": {"scalar": "1"}, 
      "inputs": [[354, 0, 0]]
    }, 
    {
      "op": "elemwise_mul", 
      "name": "_mul18", 
      "inputs": [[344, 0, 0], [355, 0, 0]]
    }, 
    {
      "op": "Reshape", 
      "name": "reshape112", 
      "attrs": {"shape": "(-1, 50, 1)"}, 
      "inputs": [[330, 0, 0]]
    }, 
    {
      "op": "FullyConnected", 
      "name": "fullyconnected37", 
      "attrs": {"num_hidden": "100"}, 
      "inputs": [[22, 18, 0], [32, 0, 0], [33, 0, 0]]
    }, 
    {
      "op": "Activation", 
      "name": "DKVMN->value_head_add_signal", 
      "attrs": {"act_type": "tanh"}, 
      "inputs": [[358, 0, 0]]
    }, 
    {
      "op": "Reshape", 
      "name": "reshape113", 
      "attrs": {"shape": "(-1, 1, 100)"}, 
      "inputs": [[359, 0, 0]]
    }, 
    {
      "op": "batch_dot", 
      "name": "batch_dot56", 
      "inputs": [[357, 0, 0], [360, 0, 0]]
    }, 
    {
      "op": "elemwise_add", 
      "name": "_plus18", 
      "inputs": [[356, 0, 0], [361, 0, 0]]
    }, 
    {
      "op": "batch_dot", 
      "name": "batch_dot57", 
      "inputs": [[349, 0, 0], [362, 0, 0]]
    }, 
    {
      "op": "Reshape", 
      "name": "reshape115", 
      "attrs": {"shape": "(-1, 100)"}, 
      "inputs": [[363, 0, 0]]
    }, 
    {
      "op": "FullyConnected", 
      "name": "similarity_score", 
      "attrs": {
        "no_bias": "True", 
        "num_hidden": "50"
      }, 
      "inputs": [[4, 20, 0], [5, 0, 0]]
    }, 
    {
      "op": "SoftmaxActivation", 
      "name": "softmaxactivation20", 
      "inputs": [[365, 0, 0]]
    }, 
    {
      "op": "Reshape", 
      "name": "reshape120", 
      "attrs": {"shape": "(-1, 1, 50)"}, 
      "inputs": [[366, 0, 0]]
    }, 
    {
      "op": "Reshape", 
      "name": "reshape116", 
      "attrs": {"shape": "(-1, 50, 1)"}, 
      "inputs": [[348, 0, 0]]
    }, 
    {
      "op": "FullyConnected", 
      "name": "fullyconnected38", 
      "attrs": {"num_hidden": "100"}, 
      "inputs": [[22, 19, 0], [23, 0, 0], [24, 0, 0]]
    }, 
    {
      "op": "Activation", 
      "name": "DKVMN->value_head_erase_signal", 
      "attrs": {"act_type": "sigmoid"}, 
      "inputs": [[369, 0, 0]]
    }, 
    {
      "op": "Reshape", 
      "name": "reshape117", 
      "attrs": {"shape": "(-1, 1, 100)"}, 
      "inputs": [[370, 0, 0]]
    }, 
    {
      "op": "batch_dot", 
      "name": "batch_dot58", 
      "inputs": [[368, 0, 0], [371, 0, 0]]
    }, 
    {
      "op": "_rminus_scalar", 
      "name": "_rminusscalar19", 
      "attrs": {"scalar": "1"}, 
      "inputs": [[372, 0, 0]]
    }, 
    {
      "op": "elemwise_mul", 
      "name": "_mul19", 
      "inputs": [[362, 0, 0], [373, 0, 0]]
    }, 
    {
      "op": "Reshape", 
      "name": "reshape118", 
      "attrs": {"shape": "(-1, 50, 1)"}, 
      "inputs": [[348, 0, 0]]
    }, 
    {
      "op": "FullyConnected", 
      "name": "fullyconnected39", 
      "attrs": {"num_hidden": "100"}, 
      "inputs": [[22, 19, 0], [32, 0, 0], [33, 0, 0]]
    }, 
    {
      "op": "Activation", 
      "name": "DKVMN->value_head_add_signal", 
      "attrs": {"act_type": "tanh"}, 
      "inputs": [[376, 0, 0]]
    }, 
    {
      "op": "Reshape", 
      "name": "reshape119", 
      "attrs": {"shape": "(-1, 1, 100)"}, 
      "inputs": [[377, 0, 0]]
    }, 
    {
      "op": "batch_dot", 
      "name": "batch_dot59", 
      "inputs": [[375, 0, 0], [378, 0, 0]]
    }, 
    {
      "op": "elemwise_add", 
      "name": "_plus19", 
      "inputs": [[374, 0, 0], [379, 0, 0]]
    }, 
    {
      "op": "batch_dot", 
      "name": "batch_dot60", 
      "inputs": [[367, 0, 0], [380, 0, 0]]
    }, 
    {
      "op": "Reshape", 
      "name": "reshape121", 
      "attrs": {"shape": "(-1, 100)"}, 
      "inputs": [[381, 0, 0]]
    }, 
    {
      "op": "FullyConnected", 
      "name": "similarity_score", 
      "attrs": {
        "no_bias": "True", 
        "num_hidden": "50"
      }, 
      "inputs": [[4, 21, 0], [5, 0, 0]]
    }, 
    {
      "op": "SoftmaxActivation", 
      "name": "softmaxactivation21", 
      "inputs": [[383, 0, 0]]
    }, 
    {
      "op": "Reshape", 
      "name": "reshape126", 
      "attrs": {"shape": "(-1, 1, 50)"}, 
      "inputs": [[384, 0, 0]]
    }, 
    {
      "op": "Reshape", 
      "name": "reshape122", 
      "attrs": {"shape": "(-1, 50, 1)"}, 
      "inputs": [[366, 0, 0]]
    }, 
    {
      "op": "FullyConnected", 
      "name": "fullyconnected40", 
      "attrs": {"num_hidden": "100"}, 
      "inputs": [[22, 20, 0], [23, 0, 0], [24, 0, 0]]
    }, 
    {
      "op": "Activation", 
      "name": "DKVMN->value_head_erase_signal", 
      "attrs": {"act_type": "sigmoid"}, 
      "inputs": [[387, 0, 0]]
    }, 
    {
      "op": "Reshape", 
      "name": "reshape123", 
      "attrs": {"shape": "(-1, 1, 100)"}, 
      "inputs": [[388, 0, 0]]
    }, 
    {
      "op": "batch_dot", 
      "name": "batch_dot61", 
      "inputs": [[386, 0, 0], [389, 0, 0]]
    }, 
    {
      "op": "_rminus_scalar", 
      "name": "_rminusscalar20", 
      "attrs": {"scalar": "1"}, 
      "inputs": [[390, 0, 0]]
    }, 
    {
      "op": "elemwise_mul", 
      "name": "_mul20", 
      "inputs": [[380, 0, 0], [391, 0, 0]]
    }, 
    {
      "op": "Reshape", 
      "name": "reshape124", 
      "attrs": {"shape": "(-1, 50, 1)"}, 
      "inputs": [[366, 0, 0]]
    }, 
    {
      "op": "FullyConnected", 
      "name": "fullyconnected41", 
      "attrs": {"num_hidden": "100"}, 
      "inputs": [[22, 20, 0], [32, 0, 0], [33, 0, 0]]
    }, 
    {
      "op": "Activation", 
      "name": "DKVMN->value_head_add_signal", 
      "attrs": {"act_type": "tanh"}, 
      "inputs": [[394, 0, 0]]
    }, 
    {
      "op": "Reshape", 
      "name": "reshape125", 
      "attrs": {"shape": "(-1, 1, 100)"}, 
      "inputs": [[395, 0, 0]]
    }, 
    {
      "op": "batch_dot", 
      "name": "batch_dot62", 
      "inputs": [[393, 0, 0], [396, 0, 0]]
    }, 
    {
      "op": "elemwise_add", 
      "name": "_plus20", 
      "inputs": [[392, 0, 0], [397, 0, 0]]
    }, 
    {
      "op": "batch_dot", 
      "name": "batch_dot63", 
      "inputs": [[385, 0, 0], [398, 0, 0]]
    }, 
    {
      "op": "Reshape", 
      "name": "reshape127", 
      "attrs": {"shape": "(-1, 100)"}, 
      "inputs": [[399, 0, 0]]
    }, 
    {
      "op": "FullyConnected", 
      "name": "similarity_score", 
      "attrs": {
        "no_bias": "True", 
        "num_hidden": "50"
      }, 
      "inputs": [[4, 22, 0], [5, 0, 0]]
    }, 
    {
      "op": "SoftmaxActivation", 
      "name": "softmaxactivation22", 
      "inputs": [[401, 0, 0]]
    }, 
    {
      "op": "Reshape", 
      "name": "reshape132", 
      "attrs": {"shape": "(-1, 1, 50)"}, 
      "inputs": [[402, 0, 0]]
    }, 
    {
      "op": "Reshape", 
      "name": "reshape128", 
      "attrs": {"shape": "(-1, 50, 1)"}, 
      "inputs": [[384, 0, 0]]
    }, 
    {
      "op": "FullyConnected", 
      "name": "fullyconnected42", 
      "attrs": {"num_hidden": "100"}, 
      "inputs": [[22, 21, 0], [23, 0, 0], [24, 0, 0]]
    }, 
    {
      "op": "Activation", 
      "name": "DKVMN->value_head_erase_signal", 
      "attrs": {"act_type": "sigmoid"}, 
      "inputs": [[405, 0, 0]]
    }, 
    {
      "op": "Reshape", 
      "name": "reshape129", 
      "attrs": {"shape": "(-1, 1, 100)"}, 
      "inputs": [[406, 0, 0]]
    }, 
    {
      "op": "batch_dot", 
      "name": "batch_dot64", 
      "inputs": [[404, 0, 0], [407, 0, 0]]
    }, 
    {
      "op": "_rminus_scalar", 
      "name": "_rminusscalar21", 
      "attrs": {"scalar": "1"}, 
      "inputs": [[408, 0, 0]]
    }, 
    {
      "op": "elemwise_mul", 
      "name": "_mul21", 
      "inputs": [[398, 0, 0], [409, 0, 0]]
    }, 
    {
      "op": "Reshape", 
      "name": "reshape130", 
      "attrs": {"shape": "(-1, 50, 1)"}, 
      "inputs": [[384, 0, 0]]
    }, 
    {
      "op": "FullyConnected", 
      "name": "fullyconnected43", 
      "attrs": {"num_hidden": "100"}, 
      "inputs": [[22, 21, 0], [32, 0, 0], [33, 0, 0]]
    }, 
    {
      "op": "Activation", 
      "name": "DKVMN->value_head_add_signal", 
      "attrs": {"act_type": "tanh"}, 
      "inputs": [[412, 0, 0]]
    }, 
    {
      "op": "Reshape", 
      "name": "reshape131", 
      "attrs": {"shape": "(-1, 1, 100)"}, 
      "inputs": [[413, 0, 0]]
    }, 
    {
      "op": "batch_dot", 
      "name": "batch_dot65", 
      "inputs": [[411, 0, 0], [414, 0, 0]]
    }, 
    {
      "op": "elemwise_add", 
      "name": "_plus21", 
      "inputs": [[410, 0, 0], [415, 0, 0]]
    }, 
    {
      "op": "batch_dot", 
      "name": "batch_dot66", 
      "inputs": [[403, 0, 0], [416, 0, 0]]
    }, 
    {
      "op": "Reshape", 
      "name": "reshape133", 
      "attrs": {"shape": "(-1, 100)"}, 
      "inputs": [[417, 0, 0]]
    }, 
    {
      "op": "FullyConnected", 
      "name": "similarity_score", 
      "attrs": {
        "no_bias": "True", 
        "num_hidden": "50"
      }, 
      "inputs": [[4, 23, 0], [5, 0, 0]]
    }, 
    {
      "op": "SoftmaxActivation", 
      "name": "softmaxactivation23", 
      "inputs": [[419, 0, 0]]
    }, 
    {
      "op": "Reshape", 
      "name": "reshape138", 
      "attrs": {"shape": "(-1, 1, 50)"}, 
      "inputs": [[420, 0, 0]]
    }, 
    {
      "op": "Reshape", 
      "name": "reshape134", 
      "attrs": {"shape": "(-1, 50, 1)"}, 
      "inputs": [[402, 0, 0]]
    }, 
    {
      "op": "FullyConnected", 
      "name": "fullyconnected44", 
      "attrs": {"num_hidden": "100"}, 
      "inputs": [[22, 22, 0], [23, 0, 0], [24, 0, 0]]
    }, 
    {
      "op": "Activation", 
      "name": "DKVMN->value_head_erase_signal", 
      "attrs": {"act_type": "sigmoid"}, 
      "inputs": [[423, 0, 0]]
    }, 
    {
      "op": "Reshape", 
      "name": "reshape135", 
      "attrs": {"shape": "(-1, 1, 100)"}, 
      "inputs": [[424, 0, 0]]
    }, 
    {
      "op": "batch_dot", 
      "name": "batch_dot67", 
      "inputs": [[422, 0, 0], [425, 0, 0]]
    }, 
    {
      "op": "_rminus_scalar", 
      "name": "_rminusscalar22", 
      "attrs": {"scalar": "1"}, 
      "inputs": [[426, 0, 0]]
    }, 
    {
      "op": "elemwise_mul", 
      "name": "_mul22", 
      "inputs": [[416, 0, 0], [427, 0, 0]]
    }, 
    {
      "op": "Reshape", 
      "name": "reshape136", 
      "attrs": {"shape": "(-1, 50, 1)"}, 
      "inputs": [[402, 0, 0]]
    }, 
    {
      "op": "FullyConnected", 
      "name": "fullyconnected45", 
      "attrs": {"num_hidden": "100"}, 
      "inputs": [[22, 22, 0], [32, 0, 0], [33, 0, 0]]
    }, 
    {
      "op": "Activation", 
      "name": "DKVMN->value_head_add_signal", 
      "attrs": {"act_type": "tanh"}, 
      "inputs": [[430, 0, 0]]
    }, 
    {
      "op": "Reshape", 
      "name": "reshape137", 
      "attrs": {"shape": "(-1, 1, 100)"}, 
      "inputs": [[431, 0, 0]]
    }, 
    {
      "op": "batch_dot", 
      "name": "batch_dot68", 
      "inputs": [[429, 0, 0], [432, 0, 0]]
    }, 
    {
      "op": "elemwise_add", 
      "name": "_plus22", 
      "inputs": [[428, 0, 0], [433, 0, 0]]
    }, 
    {
      "op": "batch_dot", 
      "name": "batch_dot69", 
      "inputs": [[421, 0, 0], [434, 0, 0]]
    }, 
    {
      "op": "Reshape", 
      "name": "reshape139", 
      "attrs": {"shape": "(-1, 100)"}, 
      "inputs": [[435, 0, 0]]
    }, 
    {
      "op": "FullyConnected", 
      "name": "similarity_score", 
      "attrs": {
        "no_bias": "True", 
        "num_hidden": "50"
      }, 
      "inputs": [[4, 24, 0], [5, 0, 0]]
    }, 
    {
      "op": "SoftmaxActivation", 
      "name": "softmaxactivation24", 
      "inputs": [[437, 0, 0]]
    }, 
    {
      "op": "Reshape", 
      "name": "reshape144", 
      "attrs": {"shape": "(-1, 1, 50)"}, 
      "inputs": [[438, 0, 0]]
    }, 
    {
      "op": "Reshape", 
      "name": "reshape140", 
      "attrs": {"shape": "(-1, 50, 1)"}, 
      "inputs": [[420, 0, 0]]
    }, 
    {
      "op": "FullyConnected", 
      "name": "fullyconnected46", 
      "attrs": {"num_hidden": "100"}, 
      "inputs": [[22, 23, 0], [23, 0, 0], [24, 0, 0]]
    }, 
    {
      "op": "Activation", 
      "name": "DKVMN->value_head_erase_signal", 
      "attrs": {"act_type": "sigmoid"}, 
      "inputs": [[441, 0, 0]]
    }, 
    {
      "op": "Reshape", 
      "name": "reshape141", 
      "attrs": {"shape": "(-1, 1, 100)"}, 
      "inputs": [[442, 0, 0]]
    }, 
    {
      "op": "batch_dot", 
      "name": "batch_dot70", 
      "inputs": [[440, 0, 0], [443, 0, 0]]
    }, 
    {
      "op": "_rminus_scalar", 
      "name": "_rminusscalar23", 
      "attrs": {"scalar": "1"}, 
      "inputs": [[444, 0, 0]]
    }, 
    {
      "op": "elemwise_mul", 
      "name": "_mul23", 
      "inputs": [[434, 0, 0], [445, 0, 0]]
    }, 
    {
      "op": "Reshape", 
      "name": "reshape142", 
      "attrs": {"shape": "(-1, 50, 1)"}, 
      "inputs": [[420, 0, 0]]
    }, 
    {
      "op": "FullyConnected", 
      "name": "fullyconnected47", 
      "attrs": {"num_hidden": "100"}, 
      "inputs": [[22, 23, 0], [32, 0, 0], [33, 0, 0]]
    }, 
    {
      "op": "Activation", 
      "name": "DKVMN->value_head_add_signal", 
      "attrs": {"act_type": "tanh"}, 
      "inputs": [[448, 0, 0]]
    }, 
    {
      "op": "Reshape", 
      "name": "reshape143", 
      "attrs": {"shape": "(-1, 1, 100)"}, 
      "inputs": [[449, 0, 0]]
    }, 
    {
      "op": "batch_dot", 
      "name": "batch_dot71", 
      "inputs": [[447, 0, 0], [450, 0, 0]]
    }, 
    {
      "op": "elemwise_add", 
      "name": "_plus23", 
      "inputs": [[446, 0, 0], [451, 0, 0]]
    }, 
    {
      "op": "batch_dot", 
      "name": "batch_dot72", 
      "inputs": [[439, 0, 0], [452, 0, 0]]
    }, 
    {
      "op": "Reshape", 
      "name": "reshape145", 
      "attrs": {"shape": "(-1, 100)"}, 
      "inputs": [[453, 0, 0]]
    }, 
    {
      "op": "FullyConnected", 
      "name": "similarity_score", 
      "attrs": {
        "no_bias": "True", 
        "num_hidden": "50"
      }, 
      "inputs": [[4, 25, 0], [5, 0, 0]]
    }, 
    {
      "op": "SoftmaxActivation", 
      "name": "softmaxactivation25", 
      "inputs": [[455, 0, 0]]
    }, 
    {
      "op": "Reshape", 
      "name": "reshape150", 
      "attrs": {"shape": "(-1, 1, 50)"}, 
      "inputs": [[456, 0, 0]]
    }, 
    {
      "op": "Reshape", 
      "name": "reshape146", 
      "attrs": {"shape": "(-1, 50, 1)"}, 
      "inputs": [[438, 0, 0]]
    }, 
    {
      "op": "FullyConnected", 
      "name": "fullyconnected48", 
      "attrs": {"num_hidden": "100"}, 
      "inputs": [[22, 24, 0], [23, 0, 0], [24, 0, 0]]
    }, 
    {
      "op": "Activation", 
      "name": "DKVMN->value_head_erase_signal", 
      "attrs": {"act_type": "sigmoid"}, 
      "inputs": [[459, 0, 0]]
    }, 
    {
      "op": "Reshape", 
      "name": "reshape147", 
      "attrs": {"shape": "(-1, 1, 100)"}, 
      "inputs": [[460, 0, 0]]
    }, 
    {
      "op": "batch_dot", 
      "name": "batch_dot73", 
      "inputs": [[458, 0, 0], [461, 0, 0]]
    }, 
    {
      "op": "_rminus_scalar", 
      "name": "_rminusscalar24", 
      "attrs": {"scalar": "1"}, 
      "inputs": [[462, 0, 0]]
    }, 
    {
      "op": "elemwise_mul", 
      "name": "_mul24", 
      "inputs": [[452, 0, 0], [463, 0, 0]]
    }, 
    {
      "op": "Reshape", 
      "name": "reshape148", 
      "attrs": {"shape": "(-1, 50, 1)"}, 
      "inputs": [[438, 0, 0]]
    }, 
    {
      "op": "FullyConnected", 
      "name": "fullyconnected49", 
      "attrs": {"num_hidden": "100"}, 
      "inputs": [[22, 24, 0], [32, 0, 0], [33, 0, 0]]
    }, 
    {
      "op": "Activation", 
      "name": "DKVMN->value_head_add_signal", 
      "attrs": {"act_type": "tanh"}, 
      "inputs": [[466, 0, 0]]
    }, 
    {
      "op": "Reshape", 
      "name": "reshape149", 
      "attrs": {"shape": "(-1, 1, 100)"}, 
      "inputs": [[467, 0, 0]]
    }, 
    {
      "op": "batch_dot", 
      "name": "batch_dot74", 
      "inputs": [[465, 0, 0], [468, 0, 0]]
    }, 
    {
      "op": "elemwise_add", 
      "name": "_plus24", 
      "inputs": [[464, 0, 0], [469, 0, 0]]
    }, 
    {
      "op": "batch_dot", 
      "name": "batch_dot75", 
      "inputs": [[457, 0, 0], [470, 0, 0]]
    }, 
    {
      "op": "Reshape", 
      "name": "reshape151", 
      "attrs": {"shape": "(-1, 100)"}, 
      "inputs": [[471, 0, 0]]
    }, 
    {
      "op": "FullyConnected", 
      "name": "similarity_score", 
      "attrs": {
        "no_bias": "True", 
        "num_hidden": "50"
      }, 
      "inputs": [[4, 26, 0], [5, 0, 0]]
    }, 
    {
      "op": "SoftmaxActivation", 
      "name": "softmaxactivation26", 
      "inputs": [[473, 0, 0]]
    }, 
    {
      "op": "Reshape", 
      "name": "reshape156", 
      "attrs": {"shape": "(-1, 1, 50)"}, 
      "inputs": [[474, 0, 0]]
    }, 
    {
      "op": "Reshape", 
      "name": "reshape152", 
      "attrs": {"shape": "(-1, 50, 1)"}, 
      "inputs": [[456, 0, 0]]
    }, 
    {
      "op": "FullyConnected", 
      "name": "fullyconnected50", 
      "attrs": {"num_hidden": "100"}, 
      "inputs": [[22, 25, 0], [23, 0, 0], [24, 0, 0]]
    }, 
    {
      "op": "Activation", 
      "name": "DKVMN->value_head_erase_signal", 
      "attrs": {"act_type": "sigmoid"}, 
      "inputs": [[477, 0, 0]]
    }, 
    {
      "op": "Reshape", 
      "name": "reshape153", 
      "attrs": {"shape": "(-1, 1, 100)"}, 
      "inputs": [[478, 0, 0]]
    }, 
    {
      "op": "batch_dot", 
      "name": "batch_dot76", 
      "inputs": [[476, 0, 0], [479, 0, 0]]
    }, 
    {
      "op": "_rminus_scalar", 
      "name": "_rminusscalar25", 
      "attrs": {"scalar": "1"}, 
      "inputs": [[480, 0, 0]]
    }, 
    {
      "op": "elemwise_mul", 
      "name": "_mul25", 
      "inputs": [[470, 0, 0], [481, 0, 0]]
    }, 
    {
      "op": "Reshape", 
      "name": "reshape154", 
      "attrs": {"shape": "(-1, 50, 1)"}, 
      "inputs": [[456, 0, 0]]
    }, 
    {
      "op": "FullyConnected", 
      "name": "fullyconnected51", 
      "attrs": {"num_hidden": "100"}, 
      "inputs": [[22, 25, 0], [32, 0, 0], [33, 0, 0]]
    }, 
    {
      "op": "Activation", 
      "name": "DKVMN->value_head_add_signal", 
      "attrs": {"act_type": "tanh"}, 
      "inputs": [[484, 0, 0]]
    }, 
    {
      "op": "Reshape", 
      "name": "reshape155", 
      "attrs": {"shape": "(-1, 1, 100)"}, 
      "inputs": [[485, 0, 0]]
    }, 
    {
      "op": "batch_dot", 
      "name": "batch_dot77", 
      "inputs": [[483, 0, 0], [486, 0, 0]]
    }, 
    {
      "op": "elemwise_add", 
      "name": "_plus25", 
      "inputs": [[482, 0, 0], [487, 0, 0]]
    }, 
    {
      "op": "batch_dot", 
      "name": "batch_dot78", 
      "inputs": [[475, 0, 0], [488, 0, 0]]
    }, 
    {
      "op": "Reshape", 
      "name": "reshape157", 
      "attrs": {"shape": "(-1, 100)"}, 
      "inputs": [[489, 0, 0]]
    }, 
    {
      "op": "FullyConnected", 
      "name": "similarity_score", 
      "attrs": {
        "no_bias": "True", 
        "num_hidden": "50"
      }, 
      "inputs": [[4, 27, 0], [5, 0, 0]]
    }, 
    {
      "op": "SoftmaxActivation", 
      "name": "softmaxactivation27", 
      "inputs": [[491, 0, 0]]
    }, 
    {
      "op": "Reshape", 
      "name": "reshape162", 
      "attrs": {"shape": "(-1, 1, 50)"}, 
      "inputs": [[492, 0, 0]]
    }, 
    {
      "op": "Reshape", 
      "name": "reshape158", 
      "attrs": {"shape": "(-1, 50, 1)"}, 
      "inputs": [[474, 0, 0]]
    }, 
    {
      "op": "FullyConnected", 
      "name": "fullyconnected52", 
      "attrs": {"num_hidden": "100"}, 
      "inputs": [[22, 26, 0], [23, 0, 0], [24, 0, 0]]
    }, 
    {
      "op": "Activation", 
      "name": "DKVMN->value_head_erase_signal", 
      "attrs": {"act_type": "sigmoid"}, 
      "inputs": [[495, 0, 0]]
    }, 
    {
      "op": "Reshape", 
      "name": "reshape159", 
      "attrs": {"shape": "(-1, 1, 100)"}, 
      "inputs": [[496, 0, 0]]
    }, 
    {
      "op": "batch_dot", 
      "name": "batch_dot79", 
      "inputs": [[494, 0, 0], [497, 0, 0]]
    }, 
    {
      "op": "_rminus_scalar", 
      "name": "_rminusscalar26", 
      "attrs": {"scalar": "1"}, 
      "inputs": [[498, 0, 0]]
    }, 
    {
      "op": "elemwise_mul", 
      "name": "_mul26", 
      "inputs": [[488, 0, 0], [499, 0, 0]]
    }, 
    {
      "op": "Reshape", 
      "name": "reshape160", 
      "attrs": {"shape": "(-1, 50, 1)"}, 
      "inputs": [[474, 0, 0]]
    }, 
    {
      "op": "FullyConnected", 
      "name": "fullyconnected53", 
      "attrs": {"num_hidden": "100"}, 
      "inputs": [[22, 26, 0], [32, 0, 0], [33, 0, 0]]
    }, 
    {
      "op": "Activation", 
      "name": "DKVMN->value_head_add_signal", 
      "attrs": {"act_type": "tanh"}, 
      "inputs": [[502, 0, 0]]
    }, 
    {
      "op": "Reshape", 
      "name": "reshape161", 
      "attrs": {"shape": "(-1, 1, 100)"}, 
      "inputs": [[503, 0, 0]]
    }, 
    {
      "op": "batch_dot", 
      "name": "batch_dot80", 
      "inputs": [[501, 0, 0], [504, 0, 0]]
    }, 
    {
      "op": "elemwise_add", 
      "name": "_plus26", 
      "inputs": [[500, 0, 0], [505, 0, 0]]
    }, 
    {
      "op": "batch_dot", 
      "name": "batch_dot81", 
      "inputs": [[493, 0, 0], [506, 0, 0]]
    }, 
    {
      "op": "Reshape", 
      "name": "reshape163", 
      "attrs": {"shape": "(-1, 100)"}, 
      "inputs": [[507, 0, 0]]
    }, 
    {
      "op": "FullyConnected", 
      "name": "similarity_score", 
      "attrs": {
        "no_bias": "True", 
        "num_hidden": "50"
      }, 
      "inputs": [[4, 28, 0], [5, 0, 0]]
    }, 
    {
      "op": "SoftmaxActivation", 
      "name": "softmaxactivation28", 
      "inputs": [[509, 0, 0]]
    }, 
    {
      "op": "Reshape", 
      "name": "reshape168", 
      "attrs": {"shape": "(-1, 1, 50)"}, 
      "inputs": [[510, 0, 0]]
    }, 
    {
      "op": "Reshape", 
      "name": "reshape164", 
      "attrs": {"shape": "(-1, 50, 1)"}, 
      "inputs": [[492, 0, 0]]
    }, 
    {
      "op": "FullyConnected", 
      "name": "fullyconnected54", 
      "attrs": {"num_hidden": "100"}, 
      "inputs": [[22, 27, 0], [23, 0, 0], [24, 0, 0]]
    }, 
    {
      "op": "Activation", 
      "name": "DKVMN->value_head_erase_signal", 
      "attrs": {"act_type": "sigmoid"}, 
      "inputs": [[513, 0, 0]]
    }, 
    {
      "op": "Reshape", 
      "name": "reshape165", 
      "attrs": {"shape": "(-1, 1, 100)"}, 
      "inputs": [[514, 0, 0]]
    }, 
    {
      "op": "batch_dot", 
      "name": "batch_dot82", 
      "inputs": [[512, 0, 0], [515, 0, 0]]
    }, 
    {
      "op": "_rminus_scalar", 
      "name": "_rminusscalar27", 
      "attrs": {"scalar": "1"}, 
      "inputs": [[516, 0, 0]]
    }, 
    {
      "op": "elemwise_mul", 
      "name": "_mul27", 
      "inputs": [[506, 0, 0], [517, 0, 0]]
    }, 
    {
      "op": "Reshape", 
      "name": "reshape166", 
      "attrs": {"shape": "(-1, 50, 1)"}, 
      "inputs": [[492, 0, 0]]
    }, 
    {
      "op": "FullyConnected", 
      "name": "fullyconnected55", 
      "attrs": {"num_hidden": "100"}, 
      "inputs": [[22, 27, 0], [32, 0, 0], [33, 0, 0]]
    }, 
    {
      "op": "Activation", 
      "name": "DKVMN->value_head_add_signal", 
      "attrs": {"act_type": "tanh"}, 
      "inputs": [[520, 0, 0]]
    }, 
    {
      "op": "Reshape", 
      "name": "reshape167", 
      "attrs": {"shape": "(-1, 1, 100)"}, 
      "inputs": [[521, 0, 0]]
    }, 
    {
      "op": "batch_dot", 
      "name": "batch_dot83", 
      "inputs": [[519, 0, 0], [522, 0, 0]]
    }, 
    {
      "op": "elemwise_add", 
      "name": "_plus27", 
      "inputs": [[518, 0, 0], [523, 0, 0]]
    }, 
    {
      "op": "batch_dot", 
      "name": "batch_dot84", 
      "inputs": [[511, 0, 0], [524, 0, 0]]
    }, 
    {
      "op": "Reshape", 
      "name": "reshape169", 
      "attrs": {"shape": "(-1, 100)"}, 
      "inputs": [[525, 0, 0]]
    }, 
    {
      "op": "FullyConnected", 
      "name": "similarity_score", 
      "attrs": {
        "no_bias": "True", 
        "num_hidden": "50"
      }, 
      "inputs": [[4, 29, 0], [5, 0, 0]]
    }, 
    {
      "op": "SoftmaxActivation", 
      "name": "softmaxactivation29", 
      "inputs": [[527, 0, 0]]
    }, 
    {
      "op": "Reshape", 
      "name": "reshape174", 
      "attrs": {"shape": "(-1, 1, 50)"}, 
      "inputs": [[528, 0, 0]]
    }, 
    {
      "op": "Reshape", 
      "name": "reshape170", 
      "attrs": {"shape": "(-1, 50, 1)"}, 
      "inputs": [[510, 0, 0]]
    }, 
    {
      "op": "FullyConnected", 
      "name": "fullyconnected56", 
      "attrs": {"num_hidden": "100"}, 
      "inputs": [[22, 28, 0], [23, 0, 0], [24, 0, 0]]
    }, 
    {
      "op": "Activation", 
      "name": "DKVMN->value_head_erase_signal", 
      "attrs": {"act_type": "sigmoid"}, 
      "inputs": [[531, 0, 0]]
    }, 
    {
      "op": "Reshape", 
      "name": "reshape171", 
      "attrs": {"shape": "(-1, 1, 100)"}, 
      "inputs": [[532, 0, 0]]
    }, 
    {
      "op": "batch_dot", 
      "name": "batch_dot85", 
      "inputs": [[530, 0, 0], [533, 0, 0]]
    }, 
    {
      "op": "_rminus_scalar", 
      "name": "_rminusscalar28", 
      "attrs": {"scalar": "1"}, 
      "inputs": [[534, 0, 0]]
    }, 
    {
      "op": "elemwise_mul", 
      "name": "_mul28", 
      "inputs": [[524, 0, 0], [535, 0, 0]]
    }, 
    {
      "op": "Reshape", 
      "name": "reshape172", 
      "attrs": {"shape": "(-1, 50, 1)"}, 
      "inputs": [[510, 0, 0]]
    }, 
    {
      "op": "FullyConnected", 
      "name": "fullyconnected57", 
      "attrs": {"num_hidden": "100"}, 
      "inputs": [[22, 28, 0], [32, 0, 0], [33, 0, 0]]
    }, 
    {
      "op": "Activation", 
      "name": "DKVMN->value_head_add_signal", 
      "attrs": {"act_type": "tanh"}, 
      "inputs": [[538, 0, 0]]
    }, 
    {
      "op": "Reshape", 
      "name": "reshape173", 
      "attrs": {"shape": "(-1, 1, 100)"}, 
      "inputs": [[539, 0, 0]]
    }, 
    {
      "op": "batch_dot", 
      "name": "batch_dot86", 
      "inputs": [[537, 0, 0], [540, 0, 0]]
    }, 
    {
      "op": "elemwise_add", 
      "name": "_plus28", 
      "inputs": [[536, 0, 0], [541, 0, 0]]
    }, 
    {
      "op": "batch_dot", 
      "name": "batch_dot87", 
      "inputs": [[529, 0, 0], [542, 0, 0]]
    }, 
    {
      "op": "Reshape", 
      "name": "reshape175", 
      "attrs": {"shape": "(-1, 100)"}, 
      "inputs": [[543, 0, 0]]
    }, 
    {
      "op": "FullyConnected", 
      "name": "similarity_score", 
      "attrs": {
        "no_bias": "True", 
        "num_hidden": "50"
      }, 
      "inputs": [[4, 30, 0], [5, 0, 0]]
    }, 
    {
      "op": "SoftmaxActivation", 
      "name": "softmaxactivation30", 
      "inputs": [[545, 0, 0]]
    }, 
    {
      "op": "Reshape", 
      "name": "reshape180", 
      "attrs": {"shape": "(-1, 1, 50)"}, 
      "inputs": [[546, 0, 0]]
    }, 
    {
      "op": "Reshape", 
      "name": "reshape176", 
      "attrs": {"shape": "(-1, 50, 1)"}, 
      "inputs": [[528, 0, 0]]
    }, 
    {
      "op": "FullyConnected", 
      "name": "fullyconnected58", 
      "attrs": {"num_hidden": "100"}, 
      "inputs": [[22, 29, 0], [23, 0, 0], [24, 0, 0]]
    }, 
    {
      "op": "Activation", 
      "name": "DKVMN->value_head_erase_signal", 
      "attrs": {"act_type": "sigmoid"}, 
      "inputs": [[549, 0, 0]]
    }, 
    {
      "op": "Reshape", 
      "name": "reshape177", 
      "attrs": {"shape": "(-1, 1, 100)"}, 
      "inputs": [[550, 0, 0]]
    }, 
    {
      "op": "batch_dot", 
      "name": "batch_dot88", 
      "inputs": [[548, 0, 0], [551, 0, 0]]
    }, 
    {
      "op": "_rminus_scalar", 
      "name": "_rminusscalar29", 
      "attrs": {"scalar": "1"}, 
      "inputs": [[552, 0, 0]]
    }, 
    {
      "op": "elemwise_mul", 
      "name": "_mul29", 
      "inputs": [[542, 0, 0], [553, 0, 0]]
    }, 
    {
      "op": "Reshape", 
      "name": "reshape178", 
      "attrs": {"shape": "(-1, 50, 1)"}, 
      "inputs": [[528, 0, 0]]
    }, 
    {
      "op": "FullyConnected", 
      "name": "fullyconnected59", 
      "attrs": {"num_hidden": "100"}, 
      "inputs": [[22, 29, 0], [32, 0, 0], [33, 0, 0]]
    }, 
    {
      "op": "Activation", 
      "name": "DKVMN->value_head_add_signal", 
      "attrs": {"act_type": "tanh"}, 
      "inputs": [[556, 0, 0]]
    }, 
    {
      "op": "Reshape", 
      "name": "reshape179", 
      "attrs": {"shape": "(-1, 1, 100)"}, 
      "inputs": [[557, 0, 0]]
    }, 
    {
      "op": "batch_dot", 
      "name": "batch_dot89", 
      "inputs": [[555, 0, 0], [558, 0, 0]]
    }, 
    {
      "op": "elemwise_add", 
      "name": "_plus29", 
      "inputs": [[554, 0, 0], [559, 0, 0]]
    }, 
    {
      "op": "batch_dot", 
      "name": "batch_dot90", 
      "inputs": [[547, 0, 0], [560, 0, 0]]
    }, 
    {
      "op": "Reshape", 
      "name": "reshape181", 
      "attrs": {"shape": "(-1, 100)"}, 
      "inputs": [[561, 0, 0]]
    }, 
    {
      "op": "FullyConnected", 
      "name": "similarity_score", 
      "attrs": {
        "no_bias": "True", 
        "num_hidden": "50"
      }, 
      "inputs": [[4, 31, 0], [5, 0, 0]]
    }, 
    {
      "op": "SoftmaxActivation", 
      "name": "softmaxactivation31", 
      "inputs": [[563, 0, 0]]
    }, 
    {
      "op": "Reshape", 
      "name": "reshape186", 
      "attrs": {"shape": "(-1, 1, 50)"}, 
      "inputs": [[564, 0, 0]]
    }, 
    {
      "op": "Reshape", 
      "name": "reshape182", 
      "attrs": {"shape": "(-1, 50, 1)"}, 
      "inputs": [[546, 0, 0]]
    }, 
    {
      "op": "FullyConnected", 
      "name": "fullyconnected60", 
      "attrs": {"num_hidden": "100"}, 
      "inputs": [[22, 30, 0], [23, 0, 0], [24, 0, 0]]
    }, 
    {
      "op": "Activation", 
      "name": "DKVMN->value_head_erase_signal", 
      "attrs": {"act_type": "sigmoid"}, 
      "inputs": [[567, 0, 0]]
    }, 
    {
      "op": "Reshape", 
      "name": "reshape183", 
      "attrs": {"shape": "(-1, 1, 100)"}, 
      "inputs": [[568, 0, 0]]
    }, 
    {
      "op": "batch_dot", 
      "name": "batch_dot91", 
      "inputs": [[566, 0, 0], [569, 0, 0]]
    }, 
    {
      "op": "_rminus_scalar", 
      "name": "_rminusscalar30", 
      "attrs": {"scalar": "1"}, 
      "inputs": [[570, 0, 0]]
    }, 
    {
      "op": "elemwise_mul", 
      "name": "_mul30", 
      "inputs": [[560, 0, 0], [571, 0, 0]]
    }, 
    {
      "op": "Reshape", 
      "name": "reshape184", 
      "attrs": {"shape": "(-1, 50, 1)"}, 
      "inputs": [[546, 0, 0]]
    }, 
    {
      "op": "FullyConnected", 
      "name": "fullyconnected61", 
      "attrs": {"num_hidden": "100"}, 
      "inputs": [[22, 30, 0], [32, 0, 0], [33, 0, 0]]
    }, 
    {
      "op": "Activation", 
      "name": "DKVMN->value_head_add_signal", 
      "attrs": {"act_type": "tanh"}, 
      "inputs": [[574, 0, 0]]
    }, 
    {
      "op": "Reshape", 
      "name": "reshape185", 
      "attrs": {"shape": "(-1, 1, 100)"}, 
      "inputs": [[575, 0, 0]]
    }, 
    {
      "op": "batch_dot", 
      "name": "batch_dot92", 
      "inputs": [[573, 0, 0], [576, 0, 0]]
    }, 
    {
      "op": "elemwise_add", 
      "name": "_plus30", 
      "inputs": [[572, 0, 0], [577, 0, 0]]
    }, 
    {
      "op": "batch_dot", 
      "name": "batch_dot93", 
      "inputs": [[565, 0, 0], [578, 0, 0]]
    }, 
    {
      "op": "Reshape", 
      "name": "reshape187", 
      "attrs": {"shape": "(-1, 100)"}, 
      "inputs": [[579, 0, 0]]
    }, 
    {
      "op": "FullyConnected", 
      "name": "similarity_score", 
      "attrs": {
        "no_bias": "True", 
        "num_hidden": "50"
      }, 
      "inputs": [[4, 32, 0], [5, 0, 0]]
    }, 
    {
      "op": "SoftmaxActivation", 
      "name": "softmaxactivation32", 
      "inputs": [[581, 0, 0]]
    }, 
    {
      "op": "Reshape", 
      "name": "reshape192", 
      "attrs": {"shape": "(-1, 1, 50)"}, 
      "inputs": [[582, 0, 0]]
    }, 
    {
      "op": "Reshape", 
      "name": "reshape188", 
      "attrs": {"shape": "(-1, 50, 1)"}, 
      "inputs": [[564, 0, 0]]
    }, 
    {
      "op": "FullyConnected", 
      "name": "fullyconnected62", 
      "attrs": {"num_hidden": "100"}, 
      "inputs": [[22, 31, 0], [23, 0, 0], [24, 0, 0]]
    }, 
    {
      "op": "Activation", 
      "name": "DKVMN->value_head_erase_signal", 
      "attrs": {"act_type": "sigmoid"}, 
      "inputs": [[585, 0, 0]]
    }, 
    {
      "op": "Reshape", 
      "name": "reshape189", 
      "attrs": {"shape": "(-1, 1, 100)"}, 
      "inputs": [[586, 0, 0]]
    }, 
    {
      "op": "batch_dot", 
      "name": "batch_dot94", 
      "inputs": [[584, 0, 0], [587, 0, 0]]
    }, 
    {
      "op": "_rminus_scalar", 
      "name": "_rminusscalar31", 
      "attrs": {"scalar": "1"}, 
      "inputs": [[588, 0, 0]]
    }, 
    {
      "op": "elemwise_mul", 
      "name": "_mul31", 
      "inputs": [[578, 0, 0], [589, 0, 0]]
    }, 
    {
      "op": "Reshape", 
      "name": "reshape190", 
      "attrs": {"shape": "(-1, 50, 1)"}, 
      "inputs": [[564, 0, 0]]
    }, 
    {
      "op": "FullyConnected", 
      "name": "fullyconnected63", 
      "attrs": {"num_hidden": "100"}, 
      "inputs": [[22, 31, 0], [32, 0, 0], [33, 0, 0]]
    }, 
    {
      "op": "Activation", 
      "name": "DKVMN->value_head_add_signal", 
      "attrs": {"act_type": "tanh"}, 
      "inputs": [[592, 0, 0]]
    }, 
    {
      "op": "Reshape", 
      "name": "reshape191", 
      "attrs": {"shape": "(-1, 1, 100)"}, 
      "inputs": [[593, 0, 0]]
    }, 
    {
      "op": "batch_dot", 
      "name": "batch_dot95", 
      "inputs": [[591, 0, 0], [594, 0, 0]]
    }, 
    {
      "op": "elemwise_add", 
      "name": "_plus31", 
      "inputs": [[590, 0, 0], [595, 0, 0]]
    }, 
    {
      "op": "batch_dot", 
      "name": "batch_dot96", 
      "inputs": [[583, 0, 0], [596, 0, 0]]
    }, 
    {
      "op": "Reshape", 
      "name": "reshape193", 
      "attrs": {"shape": "(-1, 100)"}, 
      "inputs": [[597, 0, 0]]
    }, 
    {
      "op": "FullyConnected", 
      "name": "similarity_score", 
      "attrs": {
        "no_bias": "True", 
        "num_hidden": "50"
      }, 
      "inputs": [[4, 33, 0], [5, 0, 0]]
    }, 
    {
      "op": "SoftmaxActivation", 
      "name": "softmaxactivation33", 
      "inputs": [[599, 0, 0]]
    }, 
    {
      "op": "Reshape", 
      "name": "reshape198", 
      "attrs": {"shape": "(-1, 1, 50)"}, 
      "inputs": [[600, 0, 0]]
    }, 
    {
      "op": "Reshape", 
      "name": "reshape194", 
      "attrs": {"shape": "(-1, 50, 1)"}, 
      "inputs": [[582, 0, 0]]
    }, 
    {
      "op": "FullyConnected", 
      "name": "fullyconnected64", 
      "attrs": {"num_hidden": "100"}, 
      "inputs": [[22, 32, 0], [23, 0, 0], [24, 0, 0]]
    }, 
    {
      "op": "Activation", 
      "name": "DKVMN->value_head_erase_signal", 
      "attrs": {"act_type": "sigmoid"}, 
      "inputs": [[603, 0, 0]]
    }, 
    {
      "op": "Reshape", 
      "name": "reshape195", 
      "attrs": {"shape": "(-1, 1, 100)"}, 
      "inputs": [[604, 0, 0]]
    }, 
    {
      "op": "batch_dot", 
      "name": "batch_dot97", 
      "inputs": [[602, 0, 0], [605, 0, 0]]
    }, 
    {
      "op": "_rminus_scalar", 
      "name": "_rminusscalar32", 
      "attrs": {"scalar": "1"}, 
      "inputs": [[606, 0, 0]]
    }, 
    {
      "op": "elemwise_mul", 
      "name": "_mul32", 
      "inputs": [[596, 0, 0], [607, 0, 0]]
    }, 
    {
      "op": "Reshape", 
      "name": "reshape196", 
      "attrs": {"shape": "(-1, 50, 1)"}, 
      "inputs": [[582, 0, 0]]
    }, 
    {
      "op": "FullyConnected", 
      "name": "fullyconnected65", 
      "attrs": {"num_hidden": "100"}, 
      "inputs": [[22, 32, 0], [32, 0, 0], [33, 0, 0]]
    }, 
    {
      "op": "Activation", 
      "name": "DKVMN->value_head_add_signal", 
      "attrs": {"act_type": "tanh"}, 
      "inputs": [[610, 0, 0]]
    }, 
    {
      "op": "Reshape", 
      "name": "reshape197", 
      "attrs": {"shape": "(-1, 1, 100)"}, 
      "inputs": [[611, 0, 0]]
    }, 
    {
      "op": "batch_dot", 
      "name": "batch_dot98", 
      "inputs": [[609, 0, 0], [612, 0, 0]]
    }, 
    {
      "op": "elemwise_add", 
      "name": "_plus32", 
      "inputs": [[608, 0, 0], [613, 0, 0]]
    }, 
    {
      "op": "batch_dot", 
      "name": "batch_dot99", 
      "inputs": [[601, 0, 0], [614, 0, 0]]
    }, 
    {
      "op": "Reshape", 
      "name": "reshape199", 
      "attrs": {"shape": "(-1, 100)"}, 
      "inputs": [[615, 0, 0]]
    }, 
    {
      "op": "FullyConnected", 
      "name": "similarity_score", 
      "attrs": {
        "no_bias": "True", 
        "num_hidden": "50"
      }, 
      "inputs": [[4, 34, 0], [5, 0, 0]]
    }, 
    {
      "op": "SoftmaxActivation", 
      "name": "softmaxactivation34", 
      "inputs": [[617, 0, 0]]
    }, 
    {
      "op": "Reshape", 
      "name": "reshape204", 
      "attrs": {"shape": "(-1, 1, 50)"}, 
      "inputs": [[618, 0, 0]]
    }, 
    {
      "op": "Reshape", 
      "name": "reshape200", 
      "attrs": {"shape": "(-1, 50, 1)"}, 
      "inputs": [[600, 0, 0]]
    }, 
    {
      "op": "FullyConnected", 
      "name": "fullyconnected66", 
      "attrs": {"num_hidden": "100"}, 
      "inputs": [[22, 33, 0], [23, 0, 0], [24, 0, 0]]
    }, 
    {
      "op": "Activation", 
      "name": "DKVMN->value_head_erase_signal", 
      "attrs": {"act_type": "sigmoid"}, 
      "inputs": [[621, 0, 0]]
    }, 
    {
      "op": "Reshape", 
      "name": "reshape201", 
      "attrs": {"shape": "(-1, 1, 100)"}, 
      "inputs": [[622, 0, 0]]
    }, 
    {
      "op": "batch_dot", 
      "name": "batch_dot100", 
      "inputs": [[620, 0, 0], [623, 0, 0]]
    }, 
    {
      "op": "_rminus_scalar", 
      "name": "_rminusscalar33", 
      "attrs": {"scalar": "1"}, 
      "inputs": [[624, 0, 0]]
    }, 
    {
      "op": "elemwise_mul", 
      "name": "_mul33", 
      "inputs": [[614, 0, 0], [625, 0, 0]]
    }, 
    {
      "op": "Reshape", 
      "name": "reshape202", 
      "attrs": {"shape": "(-1, 50, 1)"}, 
      "inputs": [[600, 0, 0]]
    }, 
    {
      "op": "FullyConnected", 
      "name": "fullyconnected67", 
      "attrs": {"num_hidden": "100"}, 
      "inputs": [[22, 33, 0], [32, 0, 0], [33, 0, 0]]
    }, 
    {
      "op": "Activation", 
      "name": "DKVMN->value_head_add_signal", 
      "attrs": {"act_type": "tanh"}, 
      "inputs": [[628, 0, 0]]
    }, 
    {
      "op": "Reshape", 
      "name": "reshape203", 
      "attrs": {"shape": "(-1, 1, 100)"}, 
      "inputs": [[629, 0, 0]]
    }, 
    {
      "op": "batch_dot", 
      "name": "batch_dot101", 
      "inputs": [[627, 0, 0], [630, 0, 0]]
    }, 
    {
      "op": "elemwise_add", 
      "name": "_plus33", 
      "inputs": [[626, 0, 0], [631, 0, 0]]
    }, 
    {
      "op": "batch_dot", 
      "name": "batch_dot102", 
      "inputs": [[619, 0, 0], [632, 0, 0]]
    }, 
    {
      "op": "Reshape", 
      "name": "reshape205", 
      "attrs": {"shape": "(-1, 100)"}, 
      "inputs": [[633, 0, 0]]
    }, 
    {
      "op": "FullyConnected", 
      "name": "similarity_score", 
      "attrs": {
        "no_bias": "True", 
        "num_hidden": "50"
      }, 
      "inputs": [[4, 35, 0], [5, 0, 0]]
    }, 
    {
      "op": "SoftmaxActivation", 
      "name": "softmaxactivation35", 
      "inputs": [[635, 0, 0]]
    }, 
    {
      "op": "Reshape", 
      "name": "reshape210", 
      "attrs": {"shape": "(-1, 1, 50)"}, 
      "inputs": [[636, 0, 0]]
    }, 
    {
      "op": "Reshape", 
      "name": "reshape206", 
      "attrs": {"shape": "(-1, 50, 1)"}, 
      "inputs": [[618, 0, 0]]
    }, 
    {
      "op": "FullyConnected", 
      "name": "fullyconnected68", 
      "attrs": {"num_hidden": "100"}, 
      "inputs": [[22, 34, 0], [23, 0, 0], [24, 0, 0]]
    }, 
    {
      "op": "Activation", 
      "name": "DKVMN->value_head_erase_signal", 
      "attrs": {"act_type": "sigmoid"}, 
      "inputs": [[639, 0, 0]]
    }, 
    {
      "op": "Reshape", 
      "name": "reshape207", 
      "attrs": {"shape": "(-1, 1, 100)"}, 
      "inputs": [[640, 0, 0]]
    }, 
    {
      "op": "batch_dot", 
      "name": "batch_dot103", 
      "inputs": [[638, 0, 0], [641, 0, 0]]
    }, 
    {
      "op": "_rminus_scalar", 
      "name": "_rminusscalar34", 
      "attrs": {"scalar": "1"}, 
      "inputs": [[642, 0, 0]]
    }, 
    {
      "op": "elemwise_mul", 
      "name": "_mul34", 
      "inputs": [[632, 0, 0], [643, 0, 0]]
    }, 
    {
      "op": "Reshape", 
      "name": "reshape208", 
      "attrs": {"shape": "(-1, 50, 1)"}, 
      "inputs": [[618, 0, 0]]
    }, 
    {
      "op": "FullyConnected", 
      "name": "fullyconnected69", 
      "attrs": {"num_hidden": "100"}, 
      "inputs": [[22, 34, 0], [32, 0, 0], [33, 0, 0]]
    }, 
    {
      "op": "Activation", 
      "name": "DKVMN->value_head_add_signal", 
      "attrs": {"act_type": "tanh"}, 
      "inputs": [[646, 0, 0]]
    }, 
    {
      "op": "Reshape", 
      "name": "reshape209", 
      "attrs": {"shape": "(-1, 1, 100)"}, 
      "inputs": [[647, 0, 0]]
    }, 
    {
      "op": "batch_dot", 
      "name": "batch_dot104", 
      "inputs": [[645, 0, 0], [648, 0, 0]]
    }, 
    {
      "op": "elemwise_add", 
      "name": "_plus34", 
      "inputs": [[644, 0, 0], [649, 0, 0]]
    }, 
    {
      "op": "batch_dot", 
      "name": "batch_dot105", 
      "inputs": [[637, 0, 0], [650, 0, 0]]
    }, 
    {
      "op": "Reshape", 
      "name": "reshape211", 
      "attrs": {"shape": "(-1, 100)"}, 
      "inputs": [[651, 0, 0]]
    }, 
    {
      "op": "FullyConnected", 
      "name": "similarity_score", 
      "attrs": {
        "no_bias": "True", 
        "num_hidden": "50"
      }, 
      "inputs": [[4, 36, 0], [5, 0, 0]]
    }, 
    {
      "op": "SoftmaxActivation", 
      "name": "softmaxactivation36", 
      "inputs": [[653, 0, 0]]
    }, 
    {
      "op": "Reshape", 
      "name": "reshape216", 
      "attrs": {"shape": "(-1, 1, 50)"}, 
      "inputs": [[654, 0, 0]]
    }, 
    {
      "op": "Reshape", 
      "name": "reshape212", 
      "attrs": {"shape": "(-1, 50, 1)"}, 
      "inputs": [[636, 0, 0]]
    }, 
    {
      "op": "FullyConnected", 
      "name": "fullyconnected70", 
      "attrs": {"num_hidden": "100"}, 
      "inputs": [[22, 35, 0], [23, 0, 0], [24, 0, 0]]
    }, 
    {
      "op": "Activation", 
      "name": "DKVMN->value_head_erase_signal", 
      "attrs": {"act_type": "sigmoid"}, 
      "inputs": [[657, 0, 0]]
    }, 
    {
      "op": "Reshape", 
      "name": "reshape213", 
      "attrs": {"shape": "(-1, 1, 100)"}, 
      "inputs": [[658, 0, 0]]
    }, 
    {
      "op": "batch_dot", 
      "name": "batch_dot106", 
      "inputs": [[656, 0, 0], [659, 0, 0]]
    }, 
    {
      "op": "_rminus_scalar", 
      "name": "_rminusscalar35", 
      "attrs": {"scalar": "1"}, 
      "inputs": [[660, 0, 0]]
    }, 
    {
      "op": "elemwise_mul", 
      "name": "_mul35", 
      "inputs": [[650, 0, 0], [661, 0, 0]]
    }, 
    {
      "op": "Reshape", 
      "name": "reshape214", 
      "attrs": {"shape": "(-1, 50, 1)"}, 
      "inputs": [[636, 0, 0]]
    }, 
    {
      "op": "FullyConnected", 
      "name": "fullyconnected71", 
      "attrs": {"num_hidden": "100"}, 
      "inputs": [[22, 35, 0], [32, 0, 0], [33, 0, 0]]
    }, 
    {
      "op": "Activation", 
      "name": "DKVMN->value_head_add_signal", 
      "attrs": {"act_type": "tanh"}, 
      "inputs": [[664, 0, 0]]
    }, 
    {
      "op": "Reshape", 
      "name": "reshape215", 
      "attrs": {"shape": "(-1, 1, 100)"}, 
      "inputs": [[665, 0, 0]]
    }, 
    {
      "op": "batch_dot", 
      "name": "batch_dot107", 
      "inputs": [[663, 0, 0], [666, 0, 0]]
    }, 
    {
      "op": "elemwise_add", 
      "name": "_plus35", 
      "inputs": [[662, 0, 0], [667, 0, 0]]
    }, 
    {
      "op": "batch_dot", 
      "name": "batch_dot108", 
      "inputs": [[655, 0, 0], [668, 0, 0]]
    }, 
    {
      "op": "Reshape", 
      "name": "reshape217", 
      "attrs": {"shape": "(-1, 100)"}, 
      "inputs": [[669, 0, 0]]
    }, 
    {
      "op": "FullyConnected", 
      "name": "similarity_score", 
      "attrs": {
        "no_bias": "True", 
        "num_hidden": "50"
      }, 
      "inputs": [[4, 37, 0], [5, 0, 0]]
    }, 
    {
      "op": "SoftmaxActivation", 
      "name": "softmaxactivation37", 
      "inputs": [[671, 0, 0]]
    }, 
    {
      "op": "Reshape", 
      "name": "reshape222", 
      "attrs": {"shape": "(-1, 1, 50)"}, 
      "inputs": [[672, 0, 0]]
    }, 
    {
      "op": "Reshape", 
      "name": "reshape218", 
      "attrs": {"shape": "(-1, 50, 1)"}, 
      "inputs": [[654, 0, 0]]
    }, 
    {
      "op": "FullyConnected", 
      "name": "fullyconnected72", 
      "attrs": {"num_hidden": "100"}, 
      "inputs": [[22, 36, 0], [23, 0, 0], [24, 0, 0]]
    }, 
    {
      "op": "Activation", 
      "name": "DKVMN->value_head_erase_signal", 
      "attrs": {"act_type": "sigmoid"}, 
      "inputs": [[675, 0, 0]]
    }, 
    {
      "op": "Reshape", 
      "name": "reshape219", 
      "attrs": {"shape": "(-1, 1, 100)"}, 
      "inputs": [[676, 0, 0]]
    }, 
    {
      "op": "batch_dot", 
      "name": "batch_dot109", 
      "inputs": [[674, 0, 0], [677, 0, 0]]
    }, 
    {
      "op": "_rminus_scalar", 
      "name": "_rminusscalar36", 
      "attrs": {"scalar": "1"}, 
      "inputs": [[678, 0, 0]]
    }, 
    {
      "op": "elemwise_mul", 
      "name": "_mul36", 
      "inputs": [[668, 0, 0], [679, 0, 0]]
    }, 
    {
      "op": "Reshape", 
      "name": "reshape220", 
      "attrs": {"shape": "(-1, 50, 1)"}, 
      "inputs": [[654, 0, 0]]
    }, 
    {
      "op": "FullyConnected", 
      "name": "fullyconnected73", 
      "attrs": {"num_hidden": "100"}, 
      "inputs": [[22, 36, 0], [32, 0, 0], [33, 0, 0]]
    }, 
    {
      "op": "Activation", 
      "name": "DKVMN->value_head_add_signal", 
      "attrs": {"act_type": "tanh"}, 
      "inputs": [[682, 0, 0]]
    }, 
    {
      "op": "Reshape", 
      "name": "reshape221", 
      "attrs": {"shape": "(-1, 1, 100)"}, 
      "inputs": [[683, 0, 0]]
    }, 
    {
      "op": "batch_dot", 
      "name": "batch_dot110", 
      "inputs": [[681, 0, 0], [684, 0, 0]]
    }, 
    {
      "op": "elemwise_add", 
      "name": "_plus36", 
      "inputs": [[680, 0, 0], [685, 0, 0]]
    }, 
    {
      "op": "batch_dot", 
      "name": "batch_dot111", 
      "inputs": [[673, 0, 0], [686, 0, 0]]
    }, 
    {
      "op": "Reshape", 
      "name": "reshape223", 
      "attrs": {"shape": "(-1, 100)"}, 
      "inputs": [[687, 0, 0]]
    }, 
    {
      "op": "FullyConnected", 
      "name": "similarity_score", 
      "attrs": {
        "no_bias": "True", 
        "num_hidden": "50"
      }, 
      "inputs": [[4, 38, 0], [5, 0, 0]]
    }, 
    {
      "op": "SoftmaxActivation", 
      "name": "softmaxactivation38", 
      "inputs": [[689, 0, 0]]
    }, 
    {
      "op": "Reshape", 
      "name": "reshape228", 
      "attrs": {"shape": "(-1, 1, 50)"}, 
      "inputs": [[690, 0, 0]]
    }, 
    {
      "op": "Reshape", 
      "name": "reshape224", 
      "attrs": {"shape": "(-1, 50, 1)"}, 
      "inputs": [[672, 0, 0]]
    }, 
    {
      "op": "FullyConnected", 
      "name": "fullyconnected74", 
      "attrs": {"num_hidden": "100"}, 
      "inputs": [[22, 37, 0], [23, 0, 0], [24, 0, 0]]
    }, 
    {
      "op": "Activation", 
      "name": "DKVMN->value_head_erase_signal", 
      "attrs": {"act_type": "sigmoid"}, 
      "inputs": [[693, 0, 0]]
    }, 
    {
      "op": "Reshape", 
      "name": "reshape225", 
      "attrs": {"shape": "(-1, 1, 100)"}, 
      "inputs": [[694, 0, 0]]
    }, 
    {
      "op": "batch_dot", 
      "name": "batch_dot112", 
      "inputs": [[692, 0, 0], [695, 0, 0]]
    }, 
    {
      "op": "_rminus_scalar", 
      "name": "_rminusscalar37", 
      "attrs": {"scalar": "1"}, 
      "inputs": [[696, 0, 0]]
    }, 
    {
      "op": "elemwise_mul", 
      "name": "_mul37", 
      "inputs": [[686, 0, 0], [697, 0, 0]]
    }, 
    {
      "op": "Reshape", 
      "name": "reshape226", 
      "attrs": {"shape": "(-1, 50, 1)"}, 
      "inputs": [[672, 0, 0]]
    }, 
    {
      "op": "FullyConnected", 
      "name": "fullyconnected75", 
      "attrs": {"num_hidden": "100"}, 
      "inputs": [[22, 37, 0], [32, 0, 0], [33, 0, 0]]
    }, 
    {
      "op": "Activation", 
      "name": "DKVMN->value_head_add_signal", 
      "attrs": {"act_type": "tanh"}, 
      "inputs": [[700, 0, 0]]
    }, 
    {
      "op": "Reshape", 
      "name": "reshape227", 
      "attrs": {"shape": "(-1, 1, 100)"}, 
      "inputs": [[701, 0, 0]]
    }, 
    {
      "op": "batch_dot", 
      "name": "batch_dot113", 
      "inputs": [[699, 0, 0], [702, 0, 0]]
    }, 
    {
      "op": "elemwise_add", 
      "name": "_plus37", 
      "inputs": [[698, 0, 0], [703, 0, 0]]
    }, 
    {
      "op": "batch_dot", 
      "name": "batch_dot114", 
      "inputs": [[691, 0, 0], [704, 0, 0]]
    }, 
    {
      "op": "Reshape", 
      "name": "reshape229", 
      "attrs": {"shape": "(-1, 100)"}, 
      "inputs": [[705, 0, 0]]
    }, 
    {
      "op": "FullyConnected", 
      "name": "similarity_score", 
      "attrs": {
        "no_bias": "True", 
        "num_hidden": "50"
      }, 
      "inputs": [[4, 39, 0], [5, 0, 0]]
    }, 
    {
      "op": "SoftmaxActivation", 
      "name": "softmaxactivation39", 
      "inputs": [[707, 0, 0]]
    }, 
    {
      "op": "Reshape", 
      "name": "reshape234", 
      "attrs": {"shape": "(-1, 1, 50)"}, 
      "inputs": [[708, 0, 0]]
    }, 
    {
      "op": "Reshape", 
      "name": "reshape230", 
      "attrs": {"shape": "(-1, 50, 1)"}, 
      "inputs": [[690, 0, 0]]
    }, 
    {
      "op": "FullyConnected", 
      "name": "fullyconnected76", 
      "attrs": {"num_hidden": "100"}, 
      "inputs": [[22, 38, 0], [23, 0, 0], [24, 0, 0]]
    }, 
    {
      "op": "Activation", 
      "name": "DKVMN->value_head_erase_signal", 
      "attrs": {"act_type": "sigmoid"}, 
      "inputs": [[711, 0, 0]]
    }, 
    {
      "op": "Reshape", 
      "name": "reshape231", 
      "attrs": {"shape": "(-1, 1, 100)"}, 
      "inputs": [[712, 0, 0]]
    }, 
    {
      "op": "batch_dot", 
      "name": "batch_dot115", 
      "inputs": [[710, 0, 0], [713, 0, 0]]
    }, 
    {
      "op": "_rminus_scalar", 
      "name": "_rminusscalar38", 
      "attrs": {"scalar": "1"}, 
      "inputs": [[714, 0, 0]]
    }, 
    {
      "op": "elemwise_mul", 
      "name": "_mul38", 
      "inputs": [[704, 0, 0], [715, 0, 0]]
    }, 
    {
      "op": "Reshape", 
      "name": "reshape232", 
      "attrs": {"shape": "(-1, 50, 1)"}, 
      "inputs": [[690, 0, 0]]
    }, 
    {
      "op": "FullyConnected", 
      "name": "fullyconnected77", 
      "attrs": {"num_hidden": "100"}, 
      "inputs": [[22, 38, 0], [32, 0, 0], [33, 0, 0]]
    }, 
    {
      "op": "Activation", 
      "name": "DKVMN->value_head_add_signal", 
      "attrs": {"act_type": "tanh"}, 
      "inputs": [[718, 0, 0]]
    }, 
    {
      "op": "Reshape", 
      "name": "reshape233", 
      "attrs": {"shape": "(-1, 1, 100)"}, 
      "inputs": [[719, 0, 0]]
    }, 
    {
      "op": "batch_dot", 
      "name": "batch_dot116", 
      "inputs": [[717, 0, 0], [720, 0, 0]]
    }, 
    {
      "op": "elemwise_add", 
      "name": "_plus38", 
      "inputs": [[716, 0, 0], [721, 0, 0]]
    }, 
    {
      "op": "batch_dot", 
      "name": "batch_dot117", 
      "inputs": [[709, 0, 0], [722, 0, 0]]
    }, 
    {
      "op": "Reshape", 
      "name": "reshape235", 
      "attrs": {"shape": "(-1, 100)"}, 
      "inputs": [[723, 0, 0]]
    }, 
    {
      "op": "FullyConnected", 
      "name": "similarity_score", 
      "attrs": {
        "no_bias": "True", 
        "num_hidden": "50"
      }, 
      "inputs": [[4, 40, 0], [5, 0, 0]]
    }, 
    {
      "op": "SoftmaxActivation", 
      "name": "softmaxactivation40", 
      "inputs": [[725, 0, 0]]
    }, 
    {
      "op": "Reshape", 
      "name": "reshape240", 
      "attrs": {"shape": "(-1, 1, 50)"}, 
      "inputs": [[726, 0, 0]]
    }, 
    {
      "op": "Reshape", 
      "name": "reshape236", 
      "attrs": {"shape": "(-1, 50, 1)"}, 
      "inputs": [[708, 0, 0]]
    }, 
    {
      "op": "FullyConnected", 
      "name": "fullyconnected78", 
      "attrs": {"num_hidden": "100"}, 
      "inputs": [[22, 39, 0], [23, 0, 0], [24, 0, 0]]
    }, 
    {
      "op": "Activation", 
      "name": "DKVMN->value_head_erase_signal", 
      "attrs": {"act_type": "sigmoid"}, 
      "inputs": [[729, 0, 0]]
    }, 
    {
      "op": "Reshape", 
      "name": "reshape237", 
      "attrs": {"shape": "(-1, 1, 100)"}, 
      "inputs": [[730, 0, 0]]
    }, 
    {
      "op": "batch_dot", 
      "name": "batch_dot118", 
      "inputs": [[728, 0, 0], [731, 0, 0]]
    }, 
    {
      "op": "_rminus_scalar", 
      "name": "_rminusscalar39", 
      "attrs": {"scalar": "1"}, 
      "inputs": [[732, 0, 0]]
    }, 
    {
      "op": "elemwise_mul", 
      "name": "_mul39", 
      "inputs": [[722, 0, 0], [733, 0, 0]]
    }, 
    {
      "op": "Reshape", 
      "name": "reshape238", 
      "attrs": {"shape": "(-1, 50, 1)"}, 
      "inputs": [[708, 0, 0]]
    }, 
    {
      "op": "FullyConnected", 
      "name": "fullyconnected79", 
      "attrs": {"num_hidden": "100"}, 
      "inputs": [[22, 39, 0], [32, 0, 0], [33, 0, 0]]
    }, 
    {
      "op": "Activation", 
      "name": "DKVMN->value_head_add_signal", 
      "attrs": {"act_type": "tanh"}, 
      "inputs": [[736, 0, 0]]
    }, 
    {
      "op": "Reshape", 
      "name": "reshape239", 
      "attrs": {"shape": "(-1, 1, 100)"}, 
      "inputs": [[737, 0, 0]]
    }, 
    {
      "op": "batch_dot", 
      "name": "batch_dot119", 
      "inputs": [[735, 0, 0], [738, 0, 0]]
    }, 
    {
      "op": "elemwise_add", 
      "name": "_plus39", 
      "inputs": [[734, 0, 0], [739, 0, 0]]
    }, 
    {
      "op": "batch_dot", 
      "name": "batch_dot120", 
      "inputs": [[727, 0, 0], [740, 0, 0]]
    }, 
    {
      "op": "Reshape", 
      "name": "reshape241", 
      "attrs": {"shape": "(-1, 100)"}, 
      "inputs": [[741, 0, 0]]
    }, 
    {
      "op": "FullyConnected", 
      "name": "similarity_score", 
      "attrs": {
        "no_bias": "True", 
        "num_hidden": "50"
      }, 
      "inputs": [[4, 41, 0], [5, 0, 0]]
    }, 
    {
      "op": "SoftmaxActivation", 
      "name": "softmaxactivation41", 
      "inputs": [[743, 0, 0]]
    }, 
    {
      "op": "Reshape", 
      "name": "reshape246", 
      "attrs": {"shape": "(-1, 1, 50)"}, 
      "inputs": [[744, 0, 0]]
    }, 
    {
      "op": "Reshape", 
      "name": "reshape242", 
      "attrs": {"shape": "(-1, 50, 1)"}, 
      "inputs": [[726, 0, 0]]
    }, 
    {
      "op": "FullyConnected", 
      "name": "fullyconnected80", 
      "attrs": {"num_hidden": "100"}, 
      "inputs": [[22, 40, 0], [23, 0, 0], [24, 0, 0]]
    }, 
    {
      "op": "Activation", 
      "name": "DKVMN->value_head_erase_signal", 
      "attrs": {"act_type": "sigmoid"}, 
      "inputs": [[747, 0, 0]]
    }, 
    {
      "op": "Reshape", 
      "name": "reshape243", 
      "attrs": {"shape": "(-1, 1, 100)"}, 
      "inputs": [[748, 0, 0]]
    }, 
    {
      "op": "batch_dot", 
      "name": "batch_dot121", 
      "inputs": [[746, 0, 0], [749, 0, 0]]
    }, 
    {
      "op": "_rminus_scalar", 
      "name": "_rminusscalar40", 
      "attrs": {"scalar": "1"}, 
      "inputs": [[750, 0, 0]]
    }, 
    {
      "op": "elemwise_mul", 
      "name": "_mul40", 
      "inputs": [[740, 0, 0], [751, 0, 0]]
    }, 
    {
      "op": "Reshape", 
      "name": "reshape244", 
      "attrs": {"shape": "(-1, 50, 1)"}, 
      "inputs": [[726, 0, 0]]
    }, 
    {
      "op": "FullyConnected", 
      "name": "fullyconnected81", 
      "attrs": {"num_hidden": "100"}, 
      "inputs": [[22, 40, 0], [32, 0, 0], [33, 0, 0]]
    }, 
    {
      "op": "Activation", 
      "name": "DKVMN->value_head_add_signal", 
      "attrs": {"act_type": "tanh"}, 
      "inputs": [[754, 0, 0]]
    }, 
    {
      "op": "Reshape", 
      "name": "reshape245", 
      "attrs": {"shape": "(-1, 1, 100)"}, 
      "inputs": [[755, 0, 0]]
    }, 
    {
      "op": "batch_dot", 
      "name": "batch_dot122", 
      "inputs": [[753, 0, 0], [756, 0, 0]]
    }, 
    {
      "op": "elemwise_add", 
      "name": "_plus40", 
      "inputs": [[752, 0, 0], [757, 0, 0]]
    }, 
    {
      "op": "batch_dot", 
      "name": "batch_dot123", 
      "inputs": [[745, 0, 0], [758, 0, 0]]
    }, 
    {
      "op": "Reshape", 
      "name": "reshape247", 
      "attrs": {"shape": "(-1, 100)"}, 
      "inputs": [[759, 0, 0]]
    }, 
    {
      "op": "FullyConnected", 
      "name": "similarity_score", 
      "attrs": {
        "no_bias": "True", 
        "num_hidden": "50"
      }, 
      "inputs": [[4, 42, 0], [5, 0, 0]]
    }, 
    {
      "op": "SoftmaxActivation", 
      "name": "softmaxactivation42", 
      "inputs": [[761, 0, 0]]
    }, 
    {
      "op": "Reshape", 
      "name": "reshape252", 
      "attrs": {"shape": "(-1, 1, 50)"}, 
      "inputs": [[762, 0, 0]]
    }, 
    {
      "op": "Reshape", 
      "name": "reshape248", 
      "attrs": {"shape": "(-1, 50, 1)"}, 
      "inputs": [[744, 0, 0]]
    }, 
    {
      "op": "FullyConnected", 
      "name": "fullyconnected82", 
      "attrs": {"num_hidden": "100"}, 
      "inputs": [[22, 41, 0], [23, 0, 0], [24, 0, 0]]
    }, 
    {
      "op": "Activation", 
      "name": "DKVMN->value_head_erase_signal", 
      "attrs": {"act_type": "sigmoid"}, 
      "inputs": [[765, 0, 0]]
    }, 
    {
      "op": "Reshape", 
      "name": "reshape249", 
      "attrs": {"shape": "(-1, 1, 100)"}, 
      "inputs": [[766, 0, 0]]
    }, 
    {
      "op": "batch_dot", 
      "name": "batch_dot124", 
      "inputs": [[764, 0, 0], [767, 0, 0]]
    }, 
    {
      "op": "_rminus_scalar", 
      "name": "_rminusscalar41", 
      "attrs": {"scalar": "1"}, 
      "inputs": [[768, 0, 0]]
    }, 
    {
      "op": "elemwise_mul", 
      "name": "_mul41", 
      "inputs": [[758, 0, 0], [769, 0, 0]]
    }, 
    {
      "op": "Reshape", 
      "name": "reshape250", 
      "attrs": {"shape": "(-1, 50, 1)"}, 
      "inputs": [[744, 0, 0]]
    }, 
    {
      "op": "FullyConnected", 
      "name": "fullyconnected83", 
      "attrs": {"num_hidden": "100"}, 
      "inputs": [[22, 41, 0], [32, 0, 0], [33, 0, 0]]
    }, 
    {
      "op": "Activation", 
      "name": "DKVMN->value_head_add_signal", 
      "attrs": {"act_type": "tanh"}, 
      "inputs": [[772, 0, 0]]
    }, 
    {
      "op": "Reshape", 
      "name": "reshape251", 
      "attrs": {"shape": "(-1, 1, 100)"}, 
      "inputs": [[773, 0, 0]]
    }, 
    {
      "op": "batch_dot", 
      "name": "batch_dot125", 
      "inputs": [[771, 0, 0], [774, 0, 0]]
    }, 
    {
      "op": "elemwise_add", 
      "name": "_plus41", 
      "inputs": [[770, 0, 0], [775, 0, 0]]
    }, 
    {
      "op": "batch_dot", 
      "name": "batch_dot126", 
      "inputs": [[763, 0, 0], [776, 0, 0]]
    }, 
    {
      "op": "Reshape", 
      "name": "reshape253", 
      "attrs": {"shape": "(-1, 100)"}, 
      "inputs": [[777, 0, 0]]
    }, 
    {
      "op": "FullyConnected", 
      "name": "similarity_score", 
      "attrs": {
        "no_bias": "True", 
        "num_hidden": "50"
      }, 
      "inputs": [[4, 43, 0], [5, 0, 0]]
    }, 
    {
      "op": "SoftmaxActivation", 
      "name": "softmaxactivation43", 
      "inputs": [[779, 0, 0]]
    }, 
    {
      "op": "Reshape", 
      "name": "reshape258", 
      "attrs": {"shape": "(-1, 1, 50)"}, 
      "inputs": [[780, 0, 0]]
    }, 
    {
      "op": "Reshape", 
      "name": "reshape254", 
      "attrs": {"shape": "(-1, 50, 1)"}, 
      "inputs": [[762, 0, 0]]
    }, 
    {
      "op": "FullyConnected", 
      "name": "fullyconnected84", 
      "attrs": {"num_hidden": "100"}, 
      "inputs": [[22, 42, 0], [23, 0, 0], [24, 0, 0]]
    }, 
    {
      "op": "Activation", 
      "name": "DKVMN->value_head_erase_signal", 
      "attrs": {"act_type": "sigmoid"}, 
      "inputs": [[783, 0, 0]]
    }, 
    {
      "op": "Reshape", 
      "name": "reshape255", 
      "attrs": {"shape": "(-1, 1, 100)"}, 
      "inputs": [[784, 0, 0]]
    }, 
    {
      "op": "batch_dot", 
      "name": "batch_dot127", 
      "inputs": [[782, 0, 0], [785, 0, 0]]
    }, 
    {
      "op": "_rminus_scalar", 
      "name": "_rminusscalar42", 
      "attrs": {"scalar": "1"}, 
      "inputs": [[786, 0, 0]]
    }, 
    {
      "op": "elemwise_mul", 
      "name": "_mul42", 
      "inputs": [[776, 0, 0], [787, 0, 0]]
    }, 
    {
      "op": "Reshape", 
      "name": "reshape256", 
      "attrs": {"shape": "(-1, 50, 1)"}, 
      "inputs": [[762, 0, 0]]
    }, 
    {
      "op": "FullyConnected", 
      "name": "fullyconnected85", 
      "attrs": {"num_hidden": "100"}, 
      "inputs": [[22, 42, 0], [32, 0, 0], [33, 0, 0]]
    }, 
    {
      "op": "Activation", 
      "name": "DKVMN->value_head_add_signal", 
      "attrs": {"act_type": "tanh"}, 
      "inputs": [[790, 0, 0]]
    }, 
    {
      "op": "Reshape", 
      "name": "reshape257", 
      "attrs": {"shape": "(-1, 1, 100)"}, 
      "inputs": [[791, 0, 0]]
    }, 
    {
      "op": "batch_dot", 
      "name": "batch_dot128", 
      "inputs": [[789, 0, 0], [792, 0, 0]]
    }, 
    {
      "op": "elemwise_add", 
      "name": "_plus42", 
      "inputs": [[788, 0, 0], [793, 0, 0]]
    }, 
    {
      "op": "batch_dot", 
      "name": "batch_dot129", 
      "inputs": [[781, 0, 0], [794, 0, 0]]
    }, 
    {
      "op": "Reshape", 
      "name": "reshape259", 
      "attrs": {"shape": "(-1, 100)"}, 
      "inputs": [[795, 0, 0]]
    }, 
    {
      "op": "FullyConnected", 
      "name": "similarity_score", 
      "attrs": {
        "no_bias": "True", 
        "num_hidden": "50"
      }, 
      "inputs": [[4, 44, 0], [5, 0, 0]]
    }, 
    {
      "op": "SoftmaxActivation", 
      "name": "softmaxactivation44", 
      "inputs": [[797, 0, 0]]
    }, 
    {
      "op": "Reshape", 
      "name": "reshape264", 
      "attrs": {"shape": "(-1, 1, 50)"}, 
      "inputs": [[798, 0, 0]]
    }, 
    {
      "op": "Reshape", 
      "name": "reshape260", 
      "attrs": {"shape": "(-1, 50, 1)"}, 
      "inputs": [[780, 0, 0]]
    }, 
    {
      "op": "FullyConnected", 
      "name": "fullyconnected86", 
      "attrs": {"num_hidden": "100"}, 
      "inputs": [[22, 43, 0], [23, 0, 0], [24, 0, 0]]
    }, 
    {
      "op": "Activation", 
      "name": "DKVMN->value_head_erase_signal", 
      "attrs": {"act_type": "sigmoid"}, 
      "inputs": [[801, 0, 0]]
    }, 
    {
      "op": "Reshape", 
      "name": "reshape261", 
      "attrs": {"shape": "(-1, 1, 100)"}, 
      "inputs": [[802, 0, 0]]
    }, 
    {
      "op": "batch_dot", 
      "name": "batch_dot130", 
      "inputs": [[800, 0, 0], [803, 0, 0]]
    }, 
    {
      "op": "_rminus_scalar", 
      "name": "_rminusscalar43", 
      "attrs": {"scalar": "1"}, 
      "inputs": [[804, 0, 0]]
    }, 
    {
      "op": "elemwise_mul", 
      "name": "_mul43", 
      "inputs": [[794, 0, 0], [805, 0, 0]]
    }, 
    {
      "op": "Reshape", 
      "name": "reshape262", 
      "attrs": {"shape": "(-1, 50, 1)"}, 
      "inputs": [[780, 0, 0]]
    }, 
    {
      "op": "FullyConnected", 
      "name": "fullyconnected87", 
      "attrs": {"num_hidden": "100"}, 
      "inputs": [[22, 43, 0], [32, 0, 0], [33, 0, 0]]
    }, 
    {
      "op": "Activation", 
      "name": "DKVMN->value_head_add_signal", 
      "attrs": {"act_type": "tanh"}, 
      "inputs": [[808, 0, 0]]
    }, 
    {
      "op": "Reshape", 
      "name": "reshape263", 
      "attrs": {"shape": "(-1, 1, 100)"}, 
      "inputs": [[809, 0, 0]]
    }, 
    {
      "op": "batch_dot", 
      "name": "batch_dot131", 
      "inputs": [[807, 0, 0], [810, 0, 0]]
    }, 
    {
      "op": "elemwise_add", 
      "name": "_plus43", 
      "inputs": [[806, 0, 0], [811, 0, 0]]
    }, 
    {
      "op": "batch_dot", 
      "name": "batch_dot132", 
      "inputs": [[799, 0, 0], [812, 0, 0]]
    }, 
    {
      "op": "Reshape", 
      "name": "reshape265", 
      "attrs": {"shape": "(-1, 100)"}, 
      "inputs": [[813, 0, 0]]
    }, 
    {
      "op": "FullyConnected", 
      "name": "similarity_score", 
      "attrs": {
        "no_bias": "True", 
        "num_hidden": "50"
      }, 
      "inputs": [[4, 45, 0], [5, 0, 0]]
    }, 
    {
      "op": "SoftmaxActivation", 
      "name": "softmaxactivation45", 
      "inputs": [[815, 0, 0]]
    }, 
    {
      "op": "Reshape", 
      "name": "reshape270", 
      "attrs": {"shape": "(-1, 1, 50)"}, 
      "inputs": [[816, 0, 0]]
    }, 
    {
      "op": "Reshape", 
      "name": "reshape266", 
      "attrs": {"shape": "(-1, 50, 1)"}, 
      "inputs": [[798, 0, 0]]
    }, 
    {
      "op": "FullyConnected", 
      "name": "fullyconnected88", 
      "attrs": {"num_hidden": "100"}, 
      "inputs": [[22, 44, 0], [23, 0, 0], [24, 0, 0]]
    }, 
    {
      "op": "Activation", 
      "name": "DKVMN->value_head_erase_signal", 
      "attrs": {"act_type": "sigmoid"}, 
      "inputs": [[819, 0, 0]]
    }, 
    {
      "op": "Reshape", 
      "name": "reshape267", 
      "attrs": {"shape": "(-1, 1, 100)"}, 
      "inputs": [[820, 0, 0]]
    }, 
    {
      "op": "batch_dot", 
      "name": "batch_dot133", 
      "inputs": [[818, 0, 0], [821, 0, 0]]
    }, 
    {
      "op": "_rminus_scalar", 
      "name": "_rminusscalar44", 
      "attrs": {"scalar": "1"}, 
      "inputs": [[822, 0, 0]]
    }, 
    {
      "op": "elemwise_mul", 
      "name": "_mul44", 
      "inputs": [[812, 0, 0], [823, 0, 0]]
    }, 
    {
      "op": "Reshape", 
      "name": "reshape268", 
      "attrs": {"shape": "(-1, 50, 1)"}, 
      "inputs": [[798, 0, 0]]
    }, 
    {
      "op": "FullyConnected", 
      "name": "fullyconnected89", 
      "attrs": {"num_hidden": "100"}, 
      "inputs": [[22, 44, 0], [32, 0, 0], [33, 0, 0]]
    }, 
    {
      "op": "Activation", 
      "name": "DKVMN->value_head_add_signal", 
      "attrs": {"act_type": "tanh"}, 
      "inputs": [[826, 0, 0]]
    }, 
    {
      "op": "Reshape", 
      "name": "reshape269", 
      "attrs": {"shape": "(-1, 1, 100)"}, 
      "inputs": [[827, 0, 0]]
    }, 
    {
      "op": "batch_dot", 
      "name": "batch_dot134", 
      "inputs": [[825, 0, 0], [828, 0, 0]]
    }, 
    {
      "op": "elemwise_add", 
      "name": "_plus44", 
      "inputs": [[824, 0, 0], [829, 0, 0]]
    }, 
    {
      "op": "batch_dot", 
      "name": "batch_dot135", 
      "inputs": [[817, 0, 0], [830, 0, 0]]
    }, 
    {
      "op": "Reshape", 
      "name": "reshape271", 
      "attrs": {"shape": "(-1, 100)"}, 
      "inputs": [[831, 0, 0]]
    }, 
    {
      "op": "FullyConnected", 
      "name": "similarity_score", 
      "attrs": {
        "no_bias": "True", 
        "num_hidden": "50"
      }, 
      "inputs": [[4, 46, 0], [5, 0, 0]]
    }, 
    {
      "op": "SoftmaxActivation", 
      "name": "softmaxactivation46", 
      "inputs": [[833, 0, 0]]
    }, 
    {
      "op": "Reshape", 
      "name": "reshape276", 
      "attrs": {"shape": "(-1, 1, 50)"}, 
      "inputs": [[834, 0, 0]]
    }, 
    {
      "op": "Reshape", 
      "name": "reshape272", 
      "attrs": {"shape": "(-1, 50, 1)"}, 
      "inputs": [[816, 0, 0]]
    }, 
    {
      "op": "FullyConnected", 
      "name": "fullyconnected90", 
      "attrs": {"num_hidden": "100"}, 
      "inputs": [[22, 45, 0], [23, 0, 0], [24, 0, 0]]
    }, 
    {
      "op": "Activation", 
      "name": "DKVMN->value_head_erase_signal", 
      "attrs": {"act_type": "sigmoid"}, 
      "inputs": [[837, 0, 0]]
    }, 
    {
      "op": "Reshape", 
      "name": "reshape273", 
      "attrs": {"shape": "(-1, 1, 100)"}, 
      "inputs": [[838, 0, 0]]
    }, 
    {
      "op": "batch_dot", 
      "name": "batch_dot136", 
      "inputs": [[836, 0, 0], [839, 0, 0]]
    }, 
    {
      "op": "_rminus_scalar", 
      "name": "_rminusscalar45", 
      "attrs": {"scalar": "1"}, 
      "inputs": [[840, 0, 0]]
    }, 
    {
      "op": "elemwise_mul", 
      "name": "_mul45", 
      "inputs": [[830, 0, 0], [841, 0, 0]]
    }, 
    {
      "op": "Reshape", 
      "name": "reshape274", 
      "attrs": {"shape": "(-1, 50, 1)"}, 
      "inputs": [[816, 0, 0]]
    }, 
    {
      "op": "FullyConnected", 
      "name": "fullyconnected91", 
      "attrs": {"num_hidden": "100"}, 
      "inputs": [[22, 45, 0], [32, 0, 0], [33, 0, 0]]
    }, 
    {
      "op": "Activation", 
      "name": "DKVMN->value_head_add_signal", 
      "attrs": {"act_type": "tanh"}, 
      "inputs": [[844, 0, 0]]
    }, 
    {
      "op": "Reshape", 
      "name": "reshape275", 
      "attrs": {"shape": "(-1, 1, 100)"}, 
      "inputs": [[845, 0, 0]]
    }, 
    {
      "op": "batch_dot", 
      "name": "batch_dot137", 
      "inputs": [[843, 0, 0], [846, 0, 0]]
    }, 
    {
      "op": "elemwise_add", 
      "name": "_plus45", 
      "inputs": [[842, 0, 0], [847, 0, 0]]
    }, 
    {
      "op": "batch_dot", 
      "name": "batch_dot138", 
      "inputs": [[835, 0, 0], [848, 0, 0]]
    }, 
    {
      "op": "Reshape", 
      "name": "reshape277", 
      "attrs": {"shape": "(-1, 100)"}, 
      "inputs": [[849, 0, 0]]
    }, 
    {
      "op": "FullyConnected", 
      "name": "similarity_score", 
      "attrs": {
        "no_bias": "True", 
        "num_hidden": "50"
      }, 
      "inputs": [[4, 47, 0], [5, 0, 0]]
    }, 
    {
      "op": "SoftmaxActivation", 
      "name": "softmaxactivation47", 
      "inputs": [[851, 0, 0]]
    }, 
    {
      "op": "Reshape", 
      "name": "reshape282", 
      "attrs": {"shape": "(-1, 1, 50)"}, 
      "inputs": [[852, 0, 0]]
    }, 
    {
      "op": "Reshape", 
      "name": "reshape278", 
      "attrs": {"shape": "(-1, 50, 1)"}, 
      "inputs": [[834, 0, 0]]
    }, 
    {
      "op": "FullyConnected", 
      "name": "fullyconnected92", 
      "attrs": {"num_hidden": "100"}, 
      "inputs": [[22, 46, 0], [23, 0, 0], [24, 0, 0]]
    }, 
    {
      "op": "Activation", 
      "name": "DKVMN->value_head_erase_signal", 
      "attrs": {"act_type": "sigmoid"}, 
      "inputs": [[855, 0, 0]]
    }, 
    {
      "op": "Reshape", 
      "name": "reshape279", 
      "attrs": {"shape": "(-1, 1, 100)"}, 
      "inputs": [[856, 0, 0]]
    }, 
    {
      "op": "batch_dot", 
      "name": "batch_dot139", 
      "inputs": [[854, 0, 0], [857, 0, 0]]
    }, 
    {
      "op": "_rminus_scalar", 
      "name": "_rminusscalar46", 
      "attrs": {"scalar": "1"}, 
      "inputs": [[858, 0, 0]]
    }, 
    {
      "op": "elemwise_mul", 
      "name": "_mul46", 
      "inputs": [[848, 0, 0], [859, 0, 0]]
    }, 
    {
      "op": "Reshape", 
      "name": "reshape280", 
      "attrs": {"shape": "(-1, 50, 1)"}, 
      "inputs": [[834, 0, 0]]
    }, 
    {
      "op": "FullyConnected", 
      "name": "fullyconnected93", 
      "attrs": {"num_hidden": "100"}, 
      "inputs": [[22, 46, 0], [32, 0, 0], [33, 0, 0]]
    }, 
    {
      "op": "Activation", 
      "name": "DKVMN->value_head_add_signal", 
      "attrs": {"act_type": "tanh"}, 
      "inputs": [[862, 0, 0]]
    }, 
    {
      "op": "Reshape", 
      "name": "reshape281", 
      "attrs": {"shape": "(-1, 1, 100)"}, 
      "inputs": [[863, 0, 0]]
    }, 
    {
      "op": "batch_dot", 
      "name": "batch_dot140", 
      "inputs": [[861, 0, 0], [864, 0, 0]]
    }, 
    {
      "op": "elemwise_add", 
      "name": "_plus46", 
      "inputs": [[860, 0, 0], [865, 0, 0]]
    }, 
    {
      "op": "batch_dot", 
      "name": "batch_dot141", 
      "inputs": [[853, 0, 0], [866, 0, 0]]
    }, 
    {
      "op": "Reshape", 
      "name": "reshape283", 
      "attrs": {"shape": "(-1, 100)"}, 
      "inputs": [[867, 0, 0]]
    }, 
    {
      "op": "FullyConnected", 
      "name": "similarity_score", 
      "attrs": {
        "no_bias": "True", 
        "num_hidden": "50"
      }, 
      "inputs": [[4, 48, 0], [5, 0, 0]]
    }, 
    {
      "op": "SoftmaxActivation", 
      "name": "softmaxactivation48", 
      "inputs": [[869, 0, 0]]
    }, 
    {
      "op": "Reshape", 
      "name": "reshape288", 
      "attrs": {"shape": "(-1, 1, 50)"}, 
      "inputs": [[870, 0, 0]]
    }, 
    {
      "op": "Reshape", 
      "name": "reshape284", 
      "attrs": {"shape": "(-1, 50, 1)"}, 
      "inputs": [[852, 0, 0]]
    }, 
    {
      "op": "FullyConnected", 
      "name": "fullyconnected94", 
      "attrs": {"num_hidden": "100"}, 
      "inputs": [[22, 47, 0], [23, 0, 0], [24, 0, 0]]
    }, 
    {
      "op": "Activation", 
      "name": "DKVMN->value_head_erase_signal", 
      "attrs": {"act_type": "sigmoid"}, 
      "inputs": [[873, 0, 0]]
    }, 
    {
      "op": "Reshape", 
      "name": "reshape285", 
      "attrs": {"shape": "(-1, 1, 100)"}, 
      "inputs": [[874, 0, 0]]
    }, 
    {
      "op": "batch_dot", 
      "name": "batch_dot142", 
      "inputs": [[872, 0, 0], [875, 0, 0]]
    }, 
    {
      "op": "_rminus_scalar", 
      "name": "_rminusscalar47", 
      "attrs": {"scalar": "1"}, 
      "inputs": [[876, 0, 0]]
    }, 
    {
      "op": "elemwise_mul", 
      "name": "_mul47", 
      "inputs": [[866, 0, 0], [877, 0, 0]]
    }, 
    {
      "op": "Reshape", 
      "name": "reshape286", 
      "attrs": {"shape": "(-1, 50, 1)"}, 
      "inputs": [[852, 0, 0]]
    }, 
    {
      "op": "FullyConnected", 
      "name": "fullyconnected95", 
      "attrs": {"num_hidden": "100"}, 
      "inputs": [[22, 47, 0], [32, 0, 0], [33, 0, 0]]
    }, 
    {
      "op": "Activation", 
      "name": "DKVMN->value_head_add_signal", 
      "attrs": {"act_type": "tanh"}, 
      "inputs": [[880, 0, 0]]
    }, 
    {
      "op": "Reshape", 
      "name": "reshape287", 
      "attrs": {"shape": "(-1, 1, 100)"}, 
      "inputs": [[881, 0, 0]]
    }, 
    {
      "op": "batch_dot", 
      "name": "batch_dot143", 
      "inputs": [[879, 0, 0], [882, 0, 0]]
    }, 
    {
      "op": "elemwise_add", 
      "name": "_plus47", 
      "inputs": [[878, 0, 0], [883, 0, 0]]
    }, 
    {
      "op": "batch_dot", 
      "name": "batch_dot144", 
      "inputs": [[871, 0, 0], [884, 0, 0]]
    }, 
    {
      "op": "Reshape", 
      "name": "reshape289", 
      "attrs": {"shape": "(-1, 100)"}, 
      "inputs": [[885, 0, 0]]
    }, 
    {
      "op": "FullyConnected", 
      "name": "similarity_score", 
      "attrs": {
        "no_bias": "True", 
        "num_hidden": "50"
      }, 
      "inputs": [[4, 49, 0], [5, 0, 0]]
    }, 
    {
      "op": "SoftmaxActivation", 
      "name": "softmaxactivation49", 
      "inputs": [[887, 0, 0]]
    }, 
    {
      "op": "Reshape", 
      "name": "reshape294", 
      "attrs": {"shape": "(-1, 1, 50)"}, 
      "inputs": [[888, 0, 0]]
    }, 
    {
      "op": "Reshape", 
      "name": "reshape290", 
      "attrs": {"shape": "(-1, 50, 1)"}, 
      "inputs": [[870, 0, 0]]
    }, 
    {
      "op": "FullyConnected", 
      "name": "fullyconnected96", 
      "attrs": {"num_hidden": "100"}, 
      "inputs": [[22, 48, 0], [23, 0, 0], [24, 0, 0]]
    }, 
    {
      "op": "Activation", 
      "name": "DKVMN->value_head_erase_signal", 
      "attrs": {"act_type": "sigmoid"}, 
      "inputs": [[891, 0, 0]]
    }, 
    {
      "op": "Reshape", 
      "name": "reshape291", 
      "attrs": {"shape": "(-1, 1, 100)"}, 
      "inputs": [[892, 0, 0]]
    }, 
    {
      "op": "batch_dot", 
      "name": "batch_dot145", 
      "inputs": [[890, 0, 0], [893, 0, 0]]
    }, 
    {
      "op": "_rminus_scalar", 
      "name": "_rminusscalar48", 
      "attrs": {"scalar": "1"}, 
      "inputs": [[894, 0, 0]]
    }, 
    {
      "op": "elemwise_mul", 
      "name": "_mul48", 
      "inputs": [[884, 0, 0], [895, 0, 0]]
    }, 
    {
      "op": "Reshape", 
      "name": "reshape292", 
      "attrs": {"shape": "(-1, 50, 1)"}, 
      "inputs": [[870, 0, 0]]
    }, 
    {
      "op": "FullyConnected", 
      "name": "fullyconnected97", 
      "attrs": {"num_hidden": "100"}, 
      "inputs": [[22, 48, 0], [32, 0, 0], [33, 0, 0]]
    }, 
    {
      "op": "Activation", 
      "name": "DKVMN->value_head_add_signal", 
      "attrs": {"act_type": "tanh"}, 
      "inputs": [[898, 0, 0]]
    }, 
    {
      "op": "Reshape", 
      "name": "reshape293", 
      "attrs": {"shape": "(-1, 1, 100)"}, 
      "inputs": [[899, 0, 0]]
    }, 
    {
      "op": "batch_dot", 
      "name": "batch_dot146", 
      "inputs": [[897, 0, 0], [900, 0, 0]]
    }, 
    {
      "op": "elemwise_add", 
      "name": "_plus48", 
      "inputs": [[896, 0, 0], [901, 0, 0]]
    }, 
    {
      "op": "batch_dot", 
      "name": "batch_dot147", 
      "inputs": [[889, 0, 0], [902, 0, 0]]
    }, 
    {
      "op": "Reshape", 
      "name": "reshape295", 
      "attrs": {"shape": "(-1, 100)"}, 
      "inputs": [[903, 0, 0]]
    }, 
    {
      "op": "FullyConnected", 
      "name": "similarity_score", 
      "attrs": {
        "no_bias": "True", 
        "num_hidden": "50"
      }, 
      "inputs": [[4, 50, 0], [5, 0, 0]]
    }, 
    {
      "op": "SoftmaxActivation", 
      "name": "softmaxactivation50", 
      "inputs": [[905, 0, 0]]
    }, 
    {
      "op": "Reshape", 
      "name": "reshape300", 
      "attrs": {"shape": "(-1, 1, 50)"}, 
      "inputs": [[906, 0, 0]]
    }, 
    {
      "op": "Reshape", 
      "name": "reshape296", 
      "attrs": {"shape": "(-1, 50, 1)"}, 
      "inputs": [[888, 0, 0]]
    }, 
    {
      "op": "FullyConnected", 
      "name": "fullyconnected98", 
      "attrs": {"num_hidden": "100"}, 
      "inputs": [[22, 49, 0], [23, 0, 0], [24, 0, 0]]
    }, 
    {
      "op": "Activation", 
      "name": "DKVMN->value_head_erase_signal", 
      "attrs": {"act_type": "sigmoid"}, 
      "inputs": [[909, 0, 0]]
    }, 
    {
      "op": "Reshape", 
      "name": "reshape297", 
      "attrs": {"shape": "(-1, 1, 100)"}, 
      "inputs": [[910, 0, 0]]
    }, 
    {
      "op": "batch_dot", 
      "name": "batch_dot148", 
      "inputs": [[908, 0, 0], [911, 0, 0]]
    }, 
    {
      "op": "_rminus_scalar", 
      "name": "_rminusscalar49", 
      "attrs": {"scalar": "1"}, 
      "inputs": [[912, 0, 0]]
    }, 
    {
      "op": "elemwise_mul", 
      "name": "_mul49", 
      "inputs": [[902, 0, 0], [913, 0, 0]]
    }, 
    {
      "op": "Reshape", 
      "name": "reshape298", 
      "attrs": {"shape": "(-1, 50, 1)"}, 
      "inputs": [[888, 0, 0]]
    }, 
    {
      "op": "FullyConnected", 
      "name": "fullyconnected99", 
      "attrs": {"num_hidden": "100"}, 
      "inputs": [[22, 49, 0], [32, 0, 0], [33, 0, 0]]
    }, 
    {
      "op": "Activation", 
      "name": "DKVMN->value_head_add_signal", 
      "attrs": {"act_type": "tanh"}, 
      "inputs": [[916, 0, 0]]
    }, 
    {
      "op": "Reshape", 
      "name": "reshape299", 
      "attrs": {"shape": "(-1, 1, 100)"}, 
      "inputs": [[917, 0, 0]]
    }, 
    {
      "op": "batch_dot", 
      "name": "batch_dot149", 
      "inputs": [[915, 0, 0], [918, 0, 0]]
    }, 
    {
      "op": "elemwise_add", 
      "name": "_plus49", 
      "inputs": [[914, 0, 0], [919, 0, 0]]
    }, 
    {
      "op": "batch_dot", 
      "name": "batch_dot150", 
      "inputs": [[907, 0, 0], [920, 0, 0]]
    }, 
    {
      "op": "Reshape", 
      "name": "reshape301", 
      "attrs": {"shape": "(-1, 100)"}, 
      "inputs": [[921, 0, 0]]
    }, 
    {
      "op": "FullyConnected", 
      "name": "similarity_score", 
      "attrs": {
        "no_bias": "True", 
        "num_hidden": "50"
      }, 
      "inputs": [[4, 51, 0], [5, 0, 0]]
    }, 
    {
      "op": "SoftmaxActivation", 
      "name": "softmaxactivation51", 
      "inputs": [[923, 0, 0]]
    }, 
    {
      "op": "Reshape", 
      "name": "reshape306", 
      "attrs": {"shape": "(-1, 1, 50)"}, 
      "inputs": [[924, 0, 0]]
    }, 
    {
      "op": "Reshape", 
      "name": "reshape302", 
      "attrs": {"shape": "(-1, 50, 1)"}, 
      "inputs": [[906, 0, 0]]
    }, 
    {
      "op": "FullyConnected", 
      "name": "fullyconnected100", 
      "attrs": {"num_hidden": "100"}, 
      "inputs": [[22, 50, 0], [23, 0, 0], [24, 0, 0]]
    }, 
    {
      "op": "Activation", 
      "name": "DKVMN->value_head_erase_signal", 
      "attrs": {"act_type": "sigmoid"}, 
      "inputs": [[927, 0, 0]]
    }, 
    {
      "op": "Reshape", 
      "name": "reshape303", 
      "attrs": {"shape": "(-1, 1, 100)"}, 
      "inputs": [[928, 0, 0]]
    }, 
    {
      "op": "batch_dot", 
      "name": "batch_dot151", 
      "inputs": [[926, 0, 0], [929, 0, 0]]
    }, 
    {
      "op": "_rminus_scalar", 
      "name": "_rminusscalar50", 
      "attrs": {"scalar": "1"}, 
      "inputs": [[930, 0, 0]]
    }, 
    {
      "op": "elemwise_mul", 
      "name": "_mul50", 
      "inputs": [[920, 0, 0], [931, 0, 0]]
    }, 
    {
      "op": "Reshape", 
      "name": "reshape304", 
      "attrs": {"shape": "(-1, 50, 1)"}, 
      "inputs": [[906, 0, 0]]
    }, 
    {
      "op": "FullyConnected", 
      "name": "fullyconnected101", 
      "attrs": {"num_hidden": "100"}, 
      "inputs": [[22, 50, 0], [32, 0, 0], [33, 0, 0]]
    }, 
    {
      "op": "Activation", 
      "name": "DKVMN->value_head_add_signal", 
      "attrs": {"act_type": "tanh"}, 
      "inputs": [[934, 0, 0]]
    }, 
    {
      "op": "Reshape", 
      "name": "reshape305", 
      "attrs": {"shape": "(-1, 1, 100)"}, 
      "inputs": [[935, 0, 0]]
    }, 
    {
      "op": "batch_dot", 
      "name": "batch_dot152", 
      "inputs": [[933, 0, 0], [936, 0, 0]]
    }, 
    {
      "op": "elemwise_add", 
      "name": "_plus50", 
      "inputs": [[932, 0, 0], [937, 0, 0]]
    }, 
    {
      "op": "batch_dot", 
      "name": "batch_dot153", 
      "inputs": [[925, 0, 0], [938, 0, 0]]
    }, 
    {
      "op": "Reshape", 
      "name": "reshape307", 
      "attrs": {"shape": "(-1, 100)"}, 
      "inputs": [[939, 0, 0]]
    }, 
    {
      "op": "FullyConnected", 
      "name": "similarity_score", 
      "attrs": {
        "no_bias": "True", 
        "num_hidden": "50"
      }, 
      "inputs": [[4, 52, 0], [5, 0, 0]]
    }, 
    {
      "op": "SoftmaxActivation", 
      "name": "softmaxactivation52", 
      "inputs": [[941, 0, 0]]
    }, 
    {
      "op": "Reshape", 
      "name": "reshape312", 
      "attrs": {"shape": "(-1, 1, 50)"}, 
      "inputs": [[942, 0, 0]]
    }, 
    {
      "op": "Reshape", 
      "name": "reshape308", 
      "attrs": {"shape": "(-1, 50, 1)"}, 
      "inputs": [[924, 0, 0]]
    }, 
    {
      "op": "FullyConnected", 
      "name": "fullyconnected102", 
      "attrs": {"num_hidden": "100"}, 
      "inputs": [[22, 51, 0], [23, 0, 0], [24, 0, 0]]
    }, 
    {
      "op": "Activation", 
      "name": "DKVMN->value_head_erase_signal", 
      "attrs": {"act_type": "sigmoid"}, 
      "inputs": [[945, 0, 0]]
    }, 
    {
      "op": "Reshape", 
      "name": "reshape309", 
      "attrs": {"shape": "(-1, 1, 100)"}, 
      "inputs": [[946, 0, 0]]
    }, 
    {
      "op": "batch_dot", 
      "name": "batch_dot154", 
      "inputs": [[944, 0, 0], [947, 0, 0]]
    }, 
    {
      "op": "_rminus_scalar", 
      "name": "_rminusscalar51", 
      "attrs": {"scalar": "1"}, 
      "inputs": [[948, 0, 0]]
    }, 
    {
      "op": "elemwise_mul", 
      "name": "_mul51", 
      "inputs": [[938, 0, 0], [949, 0, 0]]
    }, 
    {
      "op": "Reshape", 
      "name": "reshape310", 
      "attrs": {"shape": "(-1, 50, 1)"}, 
      "inputs": [[924, 0, 0]]
    }, 
    {
      "op": "FullyConnected", 
      "name": "fullyconnected103", 
      "attrs": {"num_hidden": "100"}, 
      "inputs": [[22, 51, 0], [32, 0, 0], [33, 0, 0]]
    }, 
    {
      "op": "Activation", 
      "name": "DKVMN->value_head_add_signal", 
      "attrs": {"act_type": "tanh"}, 
      "inputs": [[952, 0, 0]]
    }, 
    {
      "op": "Reshape", 
      "name": "reshape311", 
      "attrs": {"shape": "(-1, 1, 100)"}, 
      "inputs": [[953, 0, 0]]
    }, 
    {
      "op": "batch_dot", 
      "name": "batch_dot155", 
      "inputs": [[951, 0, 0], [954, 0, 0]]
    }, 
    {
      "op": "elemwise_add", 
      "name": "_plus51", 
      "inputs": [[950, 0, 0], [955, 0, 0]]
    }, 
    {
      "op": "batch_dot", 
      "name": "batch_dot156", 
      "inputs": [[943, 0, 0], [956, 0, 0]]
    }, 
    {
      "op": "Reshape", 
      "name": "reshape313", 
      "attrs": {"shape": "(-1, 100)"}, 
      "inputs": [[957, 0, 0]]
    }, 
    {
      "op": "FullyConnected", 
      "name": "similarity_score", 
      "attrs": {
        "no_bias": "True", 
        "num_hidden": "50"
      }, 
      "inputs": [[4, 53, 0], [5, 0, 0]]
    }, 
    {
      "op": "SoftmaxActivation", 
      "name": "softmaxactivation53", 
      "inputs": [[959, 0, 0]]
    }, 
    {
      "op": "Reshape", 
      "name": "reshape318", 
      "attrs": {"shape": "(-1, 1, 50)"}, 
      "inputs": [[960, 0, 0]]
    }, 
    {
      "op": "Reshape", 
      "name": "reshape314", 
      "attrs": {"shape": "(-1, 50, 1)"}, 
      "inputs": [[942, 0, 0]]
    }, 
    {
      "op": "FullyConnected", 
      "name": "fullyconnected104", 
      "attrs": {"num_hidden": "100"}, 
      "inputs": [[22, 52, 0], [23, 0, 0], [24, 0, 0]]
    }, 
    {
      "op": "Activation", 
      "name": "DKVMN->value_head_erase_signal", 
      "attrs": {"act_type": "sigmoid"}, 
      "inputs": [[963, 0, 0]]
    }, 
    {
      "op": "Reshape", 
      "name": "reshape315", 
      "attrs": {"shape": "(-1, 1, 100)"}, 
      "inputs": [[964, 0, 0]]
    }, 
    {
      "op": "batch_dot", 
      "name": "batch_dot157", 
      "inputs": [[962, 0, 0], [965, 0, 0]]
    }, 
    {
      "op": "_rminus_scalar", 
      "name": "_rminusscalar52", 
      "attrs": {"scalar": "1"}, 
      "inputs": [[966, 0, 0]]
    }, 
    {
      "op": "elemwise_mul", 
      "name": "_mul52", 
      "inputs": [[956, 0, 0], [967, 0, 0]]
    }, 
    {
      "op": "Reshape", 
      "name": "reshape316", 
      "attrs": {"shape": "(-1, 50, 1)"}, 
      "inputs": [[942, 0, 0]]
    }, 
    {
      "op": "FullyConnected", 
      "name": "fullyconnected105", 
      "attrs": {"num_hidden": "100"}, 
      "inputs": [[22, 52, 0], [32, 0, 0], [33, 0, 0]]
    }, 
    {
      "op": "Activation", 
      "name": "DKVMN->value_head_add_signal", 
      "attrs": {"act_type": "tanh"}, 
      "inputs": [[970, 0, 0]]
    }, 
    {
      "op": "Reshape", 
      "name": "reshape317", 
      "attrs": {"shape": "(-1, 1, 100)"}, 
      "inputs": [[971, 0, 0]]
    }, 
    {
      "op": "batch_dot", 
      "name": "batch_dot158", 
      "inputs": [[969, 0, 0], [972, 0, 0]]
    }, 
    {
      "op": "elemwise_add", 
      "name": "_plus52", 
      "inputs": [[968, 0, 0], [973, 0, 0]]
    }, 
    {
      "op": "batch_dot", 
      "name": "batch_dot159", 
      "inputs": [[961, 0, 0], [974, 0, 0]]
    }, 
    {
      "op": "Reshape", 
      "name": "reshape319", 
      "attrs": {"shape": "(-1, 100)"}, 
      "inputs": [[975, 0, 0]]
    }, 
    {
      "op": "FullyConnected", 
      "name": "similarity_score", 
      "attrs": {
        "no_bias": "True", 
        "num_hidden": "50"
      }, 
      "inputs": [[4, 54, 0], [5, 0, 0]]
    }, 
    {
      "op": "SoftmaxActivation", 
      "name": "softmaxactivation54", 
      "inputs": [[977, 0, 0]]
    }, 
    {
      "op": "Reshape", 
      "name": "reshape324", 
      "attrs": {"shape": "(-1, 1, 50)"}, 
      "inputs": [[978, 0, 0]]
    }, 
    {
      "op": "Reshape", 
      "name": "reshape320", 
      "attrs": {"shape": "(-1, 50, 1)"}, 
      "inputs": [[960, 0, 0]]
    }, 
    {
      "op": "FullyConnected", 
      "name": "fullyconnected106", 
      "attrs": {"num_hidden": "100"}, 
      "inputs": [[22, 53, 0], [23, 0, 0], [24, 0, 0]]
    }, 
    {
      "op": "Activation", 
      "name": "DKVMN->value_head_erase_signal", 
      "attrs": {"act_type": "sigmoid"}, 
      "inputs": [[981, 0, 0]]
    }, 
    {
      "op": "Reshape", 
      "name": "reshape321", 
      "attrs": {"shape": "(-1, 1, 100)"}, 
      "inputs": [[982, 0, 0]]
    }, 
    {
      "op": "batch_dot", 
      "name": "batch_dot160", 
      "inputs": [[980, 0, 0], [983, 0, 0]]
    }, 
    {
      "op": "_rminus_scalar", 
      "name": "_rminusscalar53", 
      "attrs": {"scalar": "1"}, 
      "inputs": [[984, 0, 0]]
    }, 
    {
      "op": "elemwise_mul", 
      "name": "_mul53", 
      "inputs": [[974, 0, 0], [985, 0, 0]]
    }, 
    {
      "op": "Reshape", 
      "name": "reshape322", 
      "attrs": {"shape": "(-1, 50, 1)"}, 
      "inputs": [[960, 0, 0]]
    }, 
    {
      "op": "FullyConnected", 
      "name": "fullyconnected107", 
      "attrs": {"num_hidden": "100"}, 
      "inputs": [[22, 53, 0], [32, 0, 0], [33, 0, 0]]
    }, 
    {
      "op": "Activation", 
      "name": "DKVMN->value_head_add_signal", 
      "attrs": {"act_type": "tanh"}, 
      "inputs": [[988, 0, 0]]
    }, 
    {
      "op": "Reshape", 
      "name": "reshape323", 
      "attrs": {"shape": "(-1, 1, 100)"}, 
      "inputs": [[989, 0, 0]]
    }, 
    {
      "op": "batch_dot", 
      "name": "batch_dot161", 
      "inputs": [[987, 0, 0], [990, 0, 0]]
    }, 
    {
      "op": "elemwise_add", 
      "name": "_plus53", 
      "inputs": [[986, 0, 0], [991, 0, 0]]
    }, 
    {
      "op": "batch_dot", 
      "name": "batch_dot162", 
      "inputs": [[979, 0, 0], [992, 0, 0]]
    }, 
    {
      "op": "Reshape", 
      "name": "reshape325", 
      "attrs": {"shape": "(-1, 100)"}, 
      "inputs": [[993, 0, 0]]
    }, 
    {
      "op": "FullyConnected", 
      "name": "similarity_score", 
      "attrs": {
        "no_bias": "True", 
        "num_hidden": "50"
      }, 
      "inputs": [[4, 55, 0], [5, 0, 0]]
    }, 
    {
      "op": "SoftmaxActivation", 
      "name": "softmaxactivation55", 
      "inputs": [[995, 0, 0]]
    }, 
    {
      "op": "Reshape", 
      "name": "reshape330", 
      "attrs": {"shape": "(-1, 1, 50)"}, 
      "inputs": [[996, 0, 0]]
    }, 
    {
      "op": "Reshape", 
      "name": "reshape326", 
      "attrs": {"shape": "(-1, 50, 1)"}, 
      "inputs": [[978, 0, 0]]
    }, 
    {
      "op": "FullyConnected", 
      "name": "fullyconnected108", 
      "attrs": {"num_hidden": "100"}, 
      "inputs": [[22, 54, 0], [23, 0, 0], [24, 0, 0]]
    }, 
    {
      "op": "Activation", 
      "name": "DKVMN->value_head_erase_signal", 
      "attrs": {"act_type": "sigmoid"}, 
      "inputs": [[999, 0, 0]]
    }, 
    {
      "op": "Reshape", 
      "name": "reshape327", 
      "attrs": {"shape": "(-1, 1, 100)"}, 
      "inputs": [[1000, 0, 0]]
    }, 
    {
      "op": "batch_dot", 
      "name": "batch_dot163", 
      "inputs": [[998, 0, 0], [1001, 0, 0]]
    }, 
    {
      "op": "_rminus_scalar", 
      "name": "_rminusscalar54", 
      "attrs": {"scalar": "1"}, 
      "inputs": [[1002, 0, 0]]
    }, 
    {
      "op": "elemwise_mul", 
      "name": "_mul54", 
      "inputs": [[992, 0, 0], [1003, 0, 0]]
    }, 
    {
      "op": "Reshape", 
      "name": "reshape328", 
      "attrs": {"shape": "(-1, 50, 1)"}, 
      "inputs": [[978, 0, 0]]
    }, 
    {
      "op": "FullyConnected", 
      "name": "fullyconnected109", 
      "attrs": {"num_hidden": "100"}, 
      "inputs": [[22, 54, 0], [32, 0, 0], [33, 0, 0]]
    }, 
    {
      "op": "Activation", 
      "name": "DKVMN->value_head_add_signal", 
      "attrs": {"act_type": "tanh"}, 
      "inputs": [[1006, 0, 0]]
    }, 
    {
      "op": "Reshape", 
      "name": "reshape329", 
      "attrs": {"shape": "(-1, 1, 100)"}, 
      "inputs": [[1007, 0, 0]]
    }, 
    {
      "op": "batch_dot", 
      "name": "batch_dot164", 
      "inputs": [[1005, 0, 0], [1008, 0, 0]]
    }, 
    {
      "op": "elemwise_add", 
      "name": "_plus54", 
      "inputs": [[1004, 0, 0], [1009, 0, 0]]
    }, 
    {
      "op": "batch_dot", 
      "name": "batch_dot165", 
      "inputs": [[997, 0, 0], [1010, 0, 0]]
    }, 
    {
      "op": "Reshape", 
      "name": "reshape331", 
      "attrs": {"shape": "(-1, 100)"}, 
      "inputs": [[1011, 0, 0]]
    }, 
    {
      "op": "FullyConnected", 
      "name": "similarity_score", 
      "attrs": {
        "no_bias": "True", 
        "num_hidden": "50"
      }, 
      "inputs": [[4, 56, 0], [5, 0, 0]]
    }, 
    {
      "op": "SoftmaxActivation", 
      "name": "softmaxactivation56", 
      "inputs": [[1013, 0, 0]]
    }, 
    {
      "op": "Reshape", 
      "name": "reshape336", 
      "attrs": {"shape": "(-1, 1, 50)"}, 
      "inputs": [[1014, 0, 0]]
    }, 
    {
      "op": "Reshape", 
      "name": "reshape332", 
      "attrs": {"shape": "(-1, 50, 1)"}, 
      "inputs": [[996, 0, 0]]
    }, 
    {
      "op": "FullyConnected", 
      "name": "fullyconnected110", 
      "attrs": {"num_hidden": "100"}, 
      "inputs": [[22, 55, 0], [23, 0, 0], [24, 0, 0]]
    }, 
    {
      "op": "Activation", 
      "name": "DKVMN->value_head_erase_signal", 
      "attrs": {"act_type": "sigmoid"}, 
      "inputs": [[1017, 0, 0]]
    }, 
    {
      "op": "Reshape", 
      "name": "reshape333", 
      "attrs": {"shape": "(-1, 1, 100)"}, 
      "inputs": [[1018, 0, 0]]
    }, 
    {
      "op": "batch_dot", 
      "name": "batch_dot166", 
      "inputs": [[1016, 0, 0], [1019, 0, 0]]
    }, 
    {
      "op": "_rminus_scalar", 
      "name": "_rminusscalar55", 
      "attrs": {"scalar": "1"}, 
      "inputs": [[1020, 0, 0]]
    }, 
    {
      "op": "elemwise_mul", 
      "name": "_mul55", 
      "inputs": [[1010, 0, 0], [1021, 0, 0]]
    }, 
    {
      "op": "Reshape", 
      "name": "reshape334", 
      "attrs": {"shape": "(-1, 50, 1)"}, 
      "inputs": [[996, 0, 0]]
    }, 
    {
      "op": "FullyConnected", 
      "name": "fullyconnected111", 
      "attrs": {"num_hidden": "100"}, 
      "inputs": [[22, 55, 0], [32, 0, 0], [33, 0, 0]]
    }, 
    {
      "op": "Activation", 
      "name": "DKVMN->value_head_add_signal", 
      "attrs": {"act_type": "tanh"}, 
      "inputs": [[1024, 0, 0]]
    }, 
    {
      "op": "Reshape", 
      "name": "reshape335", 
      "attrs": {"shape": "(-1, 1, 100)"}, 
      "inputs": [[1025, 0, 0]]
    }, 
    {
      "op": "batch_dot", 
      "name": "batch_dot167", 
      "inputs": [[1023, 0, 0], [1026, 0, 0]]
    }, 
    {
      "op": "elemwise_add", 
      "name": "_plus55", 
      "inputs": [[1022, 0, 0], [1027, 0, 0]]
    }, 
    {
      "op": "batch_dot", 
      "name": "batch_dot168", 
      "inputs": [[1015, 0, 0], [1028, 0, 0]]
    }, 
    {
      "op": "Reshape", 
      "name": "reshape337", 
      "attrs": {"shape": "(-1, 100)"}, 
      "inputs": [[1029, 0, 0]]
    }, 
    {
      "op": "FullyConnected", 
      "name": "similarity_score", 
      "attrs": {
        "no_bias": "True", 
        "num_hidden": "50"
      }, 
      "inputs": [[4, 57, 0], [5, 0, 0]]
    }, 
    {
      "op": "SoftmaxActivation", 
      "name": "softmaxactivation57", 
      "inputs": [[1031, 0, 0]]
    }, 
    {
      "op": "Reshape", 
      "name": "reshape342", 
      "attrs": {"shape": "(-1, 1, 50)"}, 
      "inputs": [[1032, 0, 0]]
    }, 
    {
      "op": "Reshape", 
      "name": "reshape338", 
      "attrs": {"shape": "(-1, 50, 1)"}, 
      "inputs": [[1014, 0, 0]]
    }, 
    {
      "op": "FullyConnected", 
      "name": "fullyconnected112", 
      "attrs": {"num_hidden": "100"}, 
      "inputs": [[22, 56, 0], [23, 0, 0], [24, 0, 0]]
    }, 
    {
      "op": "Activation", 
      "name": "DKVMN->value_head_erase_signal", 
      "attrs": {"act_type": "sigmoid"}, 
      "inputs": [[1035, 0, 0]]
    }, 
    {
      "op": "Reshape", 
      "name": "reshape339", 
      "attrs": {"shape": "(-1, 1, 100)"}, 
      "inputs": [[1036, 0, 0]]
    }, 
    {
      "op": "batch_dot", 
      "name": "batch_dot169", 
      "inputs": [[1034, 0, 0], [1037, 0, 0]]
    }, 
    {
      "op": "_rminus_scalar", 
      "name": "_rminusscalar56", 
      "attrs": {"scalar": "1"}, 
      "inputs": [[1038, 0, 0]]
    }, 
    {
      "op": "elemwise_mul", 
      "name": "_mul56", 
      "inputs": [[1028, 0, 0], [1039, 0, 0]]
    }, 
    {
      "op": "Reshape", 
      "name": "reshape340", 
      "attrs": {"shape": "(-1, 50, 1)"}, 
      "inputs": [[1014, 0, 0]]
    }, 
    {
      "op": "FullyConnected", 
      "name": "fullyconnected113", 
      "attrs": {"num_hidden": "100"}, 
      "inputs": [[22, 56, 0], [32, 0, 0], [33, 0, 0]]
    }, 
    {
      "op": "Activation", 
      "name": "DKVMN->value_head_add_signal", 
      "attrs": {"act_type": "tanh"}, 
      "inputs": [[1042, 0, 0]]
    }, 
    {
      "op": "Reshape", 
      "name": "reshape341", 
      "attrs": {"shape": "(-1, 1, 100)"}, 
      "inputs": [[1043, 0, 0]]
    }, 
    {
      "op": "batch_dot", 
      "name": "batch_dot170", 
      "inputs": [[1041, 0, 0], [1044, 0, 0]]
    }, 
    {
      "op": "elemwise_add", 
      "name": "_plus56", 
      "inputs": [[1040, 0, 0], [1045, 0, 0]]
    }, 
    {
      "op": "batch_dot", 
      "name": "batch_dot171", 
      "inputs": [[1033, 0, 0], [1046, 0, 0]]
    }, 
    {
      "op": "Reshape", 
      "name": "reshape343", 
      "attrs": {"shape": "(-1, 100)"}, 
      "inputs": [[1047, 0, 0]]
    }, 
    {
      "op": "FullyConnected", 
      "name": "similarity_score", 
      "attrs": {
        "no_bias": "True", 
        "num_hidden": "50"
      }, 
      "inputs": [[4, 58, 0], [5, 0, 0]]
    }, 
    {
      "op": "SoftmaxActivation", 
      "name": "softmaxactivation58", 
      "inputs": [[1049, 0, 0]]
    }, 
    {
      "op": "Reshape", 
      "name": "reshape348", 
      "attrs": {"shape": "(-1, 1, 50)"}, 
      "inputs": [[1050, 0, 0]]
    }, 
    {
      "op": "Reshape", 
      "name": "reshape344", 
      "attrs": {"shape": "(-1, 50, 1)"}, 
      "inputs": [[1032, 0, 0]]
    }, 
    {
      "op": "FullyConnected", 
      "name": "fullyconnected114", 
      "attrs": {"num_hidden": "100"}, 
      "inputs": [[22, 57, 0], [23, 0, 0], [24, 0, 0]]
    }, 
    {
      "op": "Activation", 
      "name": "DKVMN->value_head_erase_signal", 
      "attrs": {"act_type": "sigmoid"}, 
      "inputs": [[1053, 0, 0]]
    }, 
    {
      "op": "Reshape", 
      "name": "reshape345", 
      "attrs": {"shape": "(-1, 1, 100)"}, 
      "inputs": [[1054, 0, 0]]
    }, 
    {
      "op": "batch_dot", 
      "name": "batch_dot172", 
      "inputs": [[1052, 0, 0], [1055, 0, 0]]
    }, 
    {
      "op": "_rminus_scalar", 
      "name": "_rminusscalar57", 
      "attrs": {"scalar": "1"}, 
      "inputs": [[1056, 0, 0]]
    }, 
    {
      "op": "elemwise_mul", 
      "name": "_mul57", 
      "inputs": [[1046, 0, 0], [1057, 0, 0]]
    }, 
    {
      "op": "Reshape", 
      "name": "reshape346", 
      "attrs": {"shape": "(-1, 50, 1)"}, 
      "inputs": [[1032, 0, 0]]
    }, 
    {
      "op": "FullyConnected", 
      "name": "fullyconnected115", 
      "attrs": {"num_hidden": "100"}, 
      "inputs": [[22, 57, 0], [32, 0, 0], [33, 0, 0]]
    }, 
    {
      "op": "Activation", 
      "name": "DKVMN->value_head_add_signal", 
      "attrs": {"act_type": "tanh"}, 
      "inputs": [[1060, 0, 0]]
    }, 
    {
      "op": "Reshape", 
      "name": "reshape347", 
      "attrs": {"shape": "(-1, 1, 100)"}, 
      "inputs": [[1061, 0, 0]]
    }, 
    {
      "op": "batch_dot", 
      "name": "batch_dot173", 
      "inputs": [[1059, 0, 0], [1062, 0, 0]]
    }, 
    {
      "op": "elemwise_add", 
      "name": "_plus57", 
      "inputs": [[1058, 0, 0], [1063, 0, 0]]
    }, 
    {
      "op": "batch_dot", 
      "name": "batch_dot174", 
      "inputs": [[1051, 0, 0], [1064, 0, 0]]
    }, 
    {
      "op": "Reshape", 
      "name": "reshape349", 
      "attrs": {"shape": "(-1, 100)"}, 
      "inputs": [[1065, 0, 0]]
    }, 
    {
      "op": "FullyConnected", 
      "name": "similarity_score", 
      "attrs": {
        "no_bias": "True", 
        "num_hidden": "50"
      }, 
      "inputs": [[4, 59, 0], [5, 0, 0]]
    }, 
    {
      "op": "SoftmaxActivation", 
      "name": "softmaxactivation59", 
      "inputs": [[1067, 0, 0]]
    }, 
    {
      "op": "Reshape", 
      "name": "reshape354", 
      "attrs": {"shape": "(-1, 1, 50)"}, 
      "inputs": [[1068, 0, 0]]
    }, 
    {
      "op": "Reshape", 
      "name": "reshape350", 
      "attrs": {"shape": "(-1, 50, 1)"}, 
      "inputs": [[1050, 0, 0]]
    }, 
    {
      "op": "FullyConnected", 
      "name": "fullyconnected116", 
      "attrs": {"num_hidden": "100"}, 
…
    2483, 
    2484, 
    2485, 
    2486, 
    2487, 
    2488, 
    2489, 
    2490, 
    2491, 
    2492, 
    2493, 
    2494, 
    2495, 
    2496, 
    2497, 
    2498, 
    2499, 
    2500, 
    2501, 
    2502, 
    2503, 
    2504, 
    2505, 
    2506, 
    2507, 
    2508, 
    2509, 
    2510, 
    2511, 
    2512, 
    2513, 
    2514, 
    2515, 
    2516, 
    2517, 
    2518, 
    2519, 
    2520, 
    2521, 
    2522, 
    2523, 
    2524, 
    2525, 
    2526, 
    2527, 
    2528, 
    2529, 
    2530, 
    2531, 
    2532, 
    2533, 
    2534, 
    2535, 
    2536, 
    2537, 
    2538, 
    2539, 
    2540, 
    2541, 
    2542, 
    2543, 
    2544, 
    2545, 
    2546, 
    2547, 
    2548, 
    2549, 
    2550, 
    2551, 
    2552, 
    2553, 
    2554, 
    2555, 
    2556, 
    2557, 
    2558, 
    2559, 
    2560, 
    2561, 
    2562, 
    2563, 
    2564, 
    2565, 
    2566, 
    2567, 
    2568, 
    2569, 
    2570, 
    2571, 
    2572, 
    2573, 
    2574, 
    2575, 
    2576, 
    2577, 
    2578, 
    2579, 
    2580, 
    2581, 
    2582, 
    2583, 
    2584, 
    2585, 
    2586, 
    2587, 
    2588, 
    2589, 
    2590, 
    2591, 
    2592, 
    2593, 
    2594, 
    2595, 
    2596, 
    2597, 
    2598, 
    2599, 
    2600, 
    2601, 
    2602, 
    2603, 
    2604, 
    2605, 
    2606, 
    2607, 
    2608, 
    2609, 
    2610, 
    2611, 
    2612, 
    2613, 
    2614, 
    2615, 
    2616, 
    2617, 
    2618, 
    2619, 
    2620, 
    2621, 
    2622, 
    2623, 
    2624, 
    2625, 
    2626, 
    2627, 
    2628, 
    2629, 
    2630, 
    2631, 
    2632, 
    2633, 
    2634, 
    2635, 
    2636, 
    2637, 
    2638, 
    2639, 
    2640, 
    2641, 
    2642, 
    2643, 
    2644, 
    2645, 
    2646, 
    2647, 
    2648, 
    2649, 
    2650, 
    2651, 
    2652, 
    2653, 
    2654, 
    2655, 
    2656, 
    2657, 
    2658, 
    2659, 
    2660, 
    2661, 
    2662, 
    2663, 
    2664, 
    2665, 
    2666, 
    2667, 
    2668, 
    2669, 
    2670, 
    2671, 
    2672, 
    2673, 
    2674, 
    2675, 
    2676, 
    2677, 
    2678, 
    2679, 
    2680, 
    2681, 
    2682, 
    2683, 
    2684, 
    2685, 
    2686, 
    2687, 
    2688, 
    2689, 
    2690, 
    2691, 
    2692, 
    2693, 
    2694, 
    2695, 
    2696, 
    2697, 
    2698, 
    2699, 
    2700, 
    2701, 
    2702, 
    2703, 
    2704, 
    2705, 
    2706, 
    2707, 
    2708, 
    2709, 
    2710, 
    2711, 
    2712, 
    2713, 
    2714, 
    2715, 
    2716, 
    2717, 
    2718, 
    2719, 
    2720, 
    2721, 
    2722, 
    2723, 
    2724, 
    2725, 
    2726, 
    2727, 
    2728, 
    2729, 
    2730, 
    2731, 
    2732, 
    2733, 
    2734, 
    2735, 
    2736, 
    2737, 
    2738, 
    2739, 
    2740, 
    2741, 
    2742, 
    2743, 
    2744, 
    2745, 
    2746, 
    2747, 
    2748, 
    2749, 
    2750, 
    2751, 
    2752, 
    2753, 
    2754, 
    2755, 
    2756, 
    2757, 
    2758, 
    2759, 
    2760, 
    2761, 
    2762, 
    2763, 
    2764, 
    2765, 
    2766, 
    2767, 
    2768, 
    2769, 
    2770, 
    2771, 
    2772, 
    2773, 
    2774, 
    2775, 
    2776, 
    2777, 
    2778, 
    2779, 
    2780, 
    2781, 
    2782, 
    2783, 
    2784, 
    2785, 
    2786, 
    2787, 
    2788, 
    2789, 
    2790, 
    2791, 
    2792, 
    2793, 
    2794, 
    2795, 
    2796, 
    2797, 
    2798, 
    2799, 
    2800, 
    2801, 
    2802, 
    2803, 
    2804, 
    2805, 
    2806, 
    2807, 
    2808, 
    2809, 
    2810, 
    2811, 
    2812, 
    2813, 
    2814, 
    2815, 
    2816, 
    2817, 
    2818, 
    2819, 
    2820, 
    2821, 
    2822, 
    2823, 
    2824, 
    2825, 
    2826, 
    2827, 
    2828, 
    2829, 
    2830, 
    2831, 
    2832, 
    2833, 
    2834, 
    2835, 
    2836, 
    2837, 
    2838, 
    2839, 
    2840, 
    2841, 
    2842, 
    2843, 
    2844, 
    2845, 
    2846, 
    2847, 
    2848, 
    2849, 
    2850, 
    2851, 
    2852, 
    2853, 
    2854, 
    2855, 
    2856, 
    2857, 
    2858, 
    2859, 
    2860, 
    2861, 
    2862, 
    2863, 
    2864, 
    2865, 
    2866, 
    2867, 
    2868, 
    2869, 
    2870, 
    2871, 
    2872, 
    2873, 
    2874, 
    2875, 
    2876, 
    2877, 
    2878, 
    2879, 
    2880, 
    2881, 
    2882, 
    2883, 
    2884, 
    2885, 
    2886, 
    2887, 
    2888, 
    2889, 
    2890, 
    2891, 
    2892, 
    2893, 
    2894, 
    2895, 
    2896, 
    2897, 
    2898, 
    2899, 
    2900, 
    2901, 
    2902, 
    2903, 
    2904, 
    2905, 
    2906, 
    2907, 
    2908, 
    2909, 
    2910, 
    2911, 
    2912, 
    2913, 
    2914, 
    2915, 
    2916, 
    2917, 
    2918, 
    2919, 
    2920, 
    2921, 
    2922, 
    2923, 
    2924, 
    2925, 
    2926, 
    2927, 
    2928, 
    2929, 
    2930, 
    2931, 
    2932, 
    2933, 
    2934, 
    2935, 
    2936, 
    2937, 
    2938, 
    2939, 
    2940, 
    2941, 
    2942, 
    2943, 
    2944, 
    2945, 
    2946, 
    2947, 
    2948, 
    2949, 
    2950, 
    2951, 
    2952, 
    2953, 
    2954, 
    2955, 
    2956, 
    2957, 
    2958, 
    2959, 
    2960, 
    2961, 
    2962, 
    2963, 
    2964, 
    2965, 
    2966, 
    2967, 
    2968, 
    2969, 
    2970, 
    2971, 
    2972, 
    2973, 
    2974, 
    2975, 
    2976, 
    2977, 
    2978, 
    2979, 
    2980, 
    2981, 
    2982, 
    2983, 
    2984, 
    2985, 
    2986, 
    2987, 
    2988, 
    2989, 
    2990, 
    2991, 
    2992, 
    2993, 
    2994, 
    2995, 
    2996, 
    2997, 
    2998, 
    2999, 
    3000, 
    3001, 
    3002, 
    3003, 
    3004, 
    3005, 
    3006, 
    3007, 
    3008, 
    3009, 
    3010, 
    3011, 
    3012, 
    3013, 
    3014, 
    3015, 
    3016, 
    3017, 
    3018, 
    3019, 
    3020, 
    3021, 
    3022, 
    3023, 
    3024, 
    3025, 
    3026, 
    3027, 
    3028, 
    3029, 
    3030, 
    3031, 
    3032, 
    3033, 
    3034, 
    3035, 
    3036, 
    3037, 
    3038, 
    3039, 
    3040, 
    3041, 
    3042, 
    3043, 
    3044, 
    3045, 
    3046, 
    3047, 
    3048, 
    3049, 
    3050, 
    3051, 
    3052, 
    3053, 
    3054, 
    3055, 
    3056, 
    3057, 
    3058, 
    3059, 
    3060, 
    3061, 
    3062, 
    3063, 
    3064, 
    3065, 
    3066, 
    3067, 
    3068, 
    3069, 
    3070, 
    3071, 
    3072, 
    3073, 
    3074, 
    3075, 
    3076, 
    3077, 
    3078, 
    3079, 
    3080, 
    3081, 
    3082, 
    3083, 
    3084, 
    3085, 
    3086, 
    3087, 
    3088, 
    3089, 
    3090, 
    3091, 
    3092, 
    3093, 
    3094, 
    3095, 
    3096, 
    3097, 
    3098, 
    3099, 
    3100, 
    3101, 
    3102, 
    3103, 
    3104, 
    3105, 
    3106, 
    3107, 
    3108, 
    3109, 
    3110, 
    3111, 
    3112, 
    3113, 
    3114, 
    3115, 
    3116, 
    3117, 
    3118, 
    3119, 
    3120, 
    3121, 
    3122, 
    3123, 
    3124, 
    3125, 
    3126, 
    3127, 
    3128, 
    3129, 
    3130, 
    3131, 
    3132, 
    3133, 
    3134, 
    3135, 
    3136, 
    3137, 
    3138, 
    3139, 
    3140, 
    3141, 
    3142, 
    3143, 
    3144, 
    3145, 
    3146, 
    3147, 
    3148, 
    3149, 
    3150, 
    3151, 
    3152, 
    3153, 
    3154, 
    3155, 
    3156, 
    3157, 
    3158, 
    3159, 
    3160, 
    3161, 
    3162, 
    3163, 
    3164, 
    3165, 
    3166, 
    3167, 
    3168, 
    3169, 
    3170, 
    3171, 
    3172, 
    3173, 
    3174, 
    3175, 
    3176, 
    3177, 
    3178, 
    3179, 
    3180, 
    3181, 
    3182, 
    3183, 
    3184, 
    3185, 
    3186, 
    3187, 
    3188, 
    3189, 
    3190, 
    3191, 
    3192, 
    3193, 
    3194, 
    3195, 
    3196, 
    3197, 
    3198, 
    3199, 
    3200, 
    3201, 
    3202, 
    3203, 
    3204, 
    3205, 
    3206, 
    3207, 
    3208, 
    3209, 
    3210, 
    3211, 
    3212, 
    3213, 
    3214, 
    3215, 
    3216, 
    3217, 
    3218, 
    3219, 
    3220, 
    3221, 
    3222, 
    3223, 
    3224, 
    3225, 
    3226, 
    3227, 
    3228, 
    3229, 
    3230, 
    3231, 
    3232, 
    3233, 
    3234, 
    3235, 
    3236, 
    3237, 
    3238, 
    3239, 
    3240, 
    3241, 
    3242, 
    3243, 
    3244, 
    3245, 
    3246, 
    3247, 
    3248, 
    3249, 
    3250, 
    3251, 
    3252, 
    3253, 
    3254, 
    3255, 
    3256, 
    3257, 
    3258, 
    3259, 
    3260, 
    3261, 
    3262, 
    3263, 
    3264, 
    3265, 
    3266, 
    3267, 
    3268, 
    3269, 
    3270, 
    3271, 
    3272, 
    3273, 
    3274, 
    3275, 
    3276, 
    3277, 
    3278, 
    3279, 
    3280, 
    3281, 
    3282, 
    3283, 
    3284, 
    3285, 
    3286, 
    3287, 
    3288, 
    3289, 
    3290, 
    3291, 
    3292, 
    3293, 
    3294, 
    3295, 
    3296, 
    3297, 
    3298, 
    3299, 
    3300, 
    3301, 
    3302, 
    3303, 
    3304, 
    3305, 
    3306, 
    3307, 
    3308, 
    3309, 
    3310, 
    3311, 
    3312, 
    3313, 
    3314, 
    3315, 
    3316, 
    3317, 
    3318, 
    3319, 
    3320, 
    3321, 
    3322, 
    3323, 
    3324, 
    3325, 
    3326, 
    3327, 
    3328, 
    3329, 
    3330, 
    3331, 
    3332, 
    3333, 
    3334, 
    3335, 
    3336, 
    3337, 
    3338, 
    3339, 
    3340, 
    3341, 
    3342, 
    3343, 
    3344, 
    3345, 
    3346, 
    3347, 
    3348, 
    3349, 
    3350, 
    3351, 
    3352, 
    3353, 
    3354, 
    3355, 
    3356, 
    3357, 
    3358, 
    3359, 
    3360, 
    3361, 
    3362, 
    3363, 
    3364, 
    3365, 
    3366, 
    3367, 
    3368, 
    3369, 
    3370, 
    3371, 
    3372, 
    3373, 
    3374, 
    3375, 
    3376, 
    3377, 
    3378, 
    3379, 
    3380, 
    3381, 
    3382, 
    3383, 
    3384, 
    3385, 
    3386, 
    3387, 
    3388, 
    3389, 
    3390, 
    3391, 
    3392, 
    3393, 
    3394, 
    3395, 
    3396, 
    3397, 
    3398, 
    3399, 
    3400, 
    3401, 
    3402, 
    3403, 
    3404, 
    3405, 
    3406, 
    3407, 
    3408, 
    3409, 
    3410, 
    3411, 
    3412, 
    3413, 
    3414, 
    3415, 
    3416, 
    3417, 
    3418, 
    3419, 
    3420, 
    3421, 
    3422, 
    3423, 
    3424, 
    3425, 
    3426, 
    3427, 
    3428, 
    3429, 
    3430, 
    3431, 
    3432, 
    3433, 
    3434, 
    3435, 
    3436, 
    3437, 
    3438, 
    3439, 
    3440, 
    3441, 
    3442, 
    3443, 
    3444, 
    3445, 
    3446, 
    3447, 
    3448, 
    3449, 
    3450, 
    3451, 
    3452, 
    3453, 
    3454, 
    3455, 
    3456, 
    3457, 
    3458, 
    3459, 
    3460, 
    3461, 
    3462, 
    3463, 
    3464, 
    3465, 
    3466, 
    3467, 
    3468, 
    3469, 
    3470, 
    3471, 
    3472, 
    3473, 
    3474, 
    3475, 
    3476, 
    3477, 
    3478, 
    3479, 
    3480, 
    3481, 
    3482, 
    3483, 
    3484, 
    3485, 
    3486, 
    3487, 
    3488, 
    3489, 
    3490, 
    3491, 
    3492, 
    3493, 
    3494, 
    3495, 
    3496, 
    3497, 
    3498, 
    3499, 
    3500, 
    3501, 
    3502, 
    3503, 
    3504, 
    3505, 
    3506, 
    3507, 
    3508, 
    3509, 
    3510, 
    3511, 
    3512, 
    3513, 
    3514, 
    3515, 
    3516, 
    3517, 
    3518, 
    3519, 
    3520, 
    3521, 
    3522, 
    3523, 
    3524, 
    3525, 
    3526, 
    3527, 
    3528, 
    3529, 
    3530, 
    3531, 
    3532, 
    3533, 
    3534, 
    3535, 
    3536, 
    3537, 
    3538, 
    3539, 
    3540, 
    3541, 
    3542, 
    3543, 
    3544, 
    3545, 
    3546, 
    3547, 
    3548, 
    3549, 
    3550, 
    3551, 
    3552, 
    3553, 
    3554, 
    3555, 
    3556, 
    3557, 
    3558, 
    3559, 
    3560, 
    3561, 
    3562, 
    3563, 
    3564, 
    3565, 
    3566, 
    3567, 
    3568, 
    3569, 
    3570, 
    3571, 
    3572, 
    3573, 
    3574, 
    3575, 
    3576, 
    3577, 
    3578, 
    3579, 
    3580, 
    3581, 
    3582, 
    3583, 
    3584, 
    3585, 
    3586, 
    3587, 
    3588, 
    3589, 
    3590, 
    3591, 
    3592, 
    3593, 
    3594, 
    3595, 
    3596, 
    3597, 
    3598, 
    3599, 
    3600, 
    3601, 
    3602, 
    3603, 
    3604, 
    3605, 
    3606, 
    3607, 
    3608, 
    3609, 
    3610, 
    3611, 
    3612, 
    3613, 
    3614, 
    3615, 
    3616, 
    3617, 
    3618, 
    3619, 
    3620, 
    3621, 
    3622, 
    3623, 
    3624, 
    3625, 
    3626, 
    3627, 
    3628, 
    3629, 
    3630, 
    3631, 
    3632, 
    3633, 
    3634, 
    3635, 
    3636, 
    3637, 
    3638, 
    3639, 
    3640, 
    3641, 
    3642, 
    3643, 
    3644, 
    3645, 
    3646, 
    3647, 
    3648, 
    3649, 
    3650, 
    3651, 
    3652, 
    3653, 
    3654, 
    3655, 
    3656, 
    3657, 
    3658, 
    3659, 
    3660, 
    3661, 
    3662, 
    3663, 
    3664, 
    3665, 
    3666, 
    3667, 
    3668, 
    3669, 
    3670, 
    3671, 
    3672, 
    3673, 
    3674, 
    3675, 
    3676, 
    3677, 
    3678, 
    3679, 
    3680, 
    3681, 
    3682, 
    3683, 
    3684, 
    3685, 
    3686, 
    3687, 
    3688, 
    3689, 
    3690, 
    3691, 
    3692, 
    3693, 
    3694, 
    3695, 
    3696, 
    3697, 
    3698, 
    3699, 
    3700, 
    3701, 
    3702, 
    3703, 
    3704, 
    3705, 
    3706, 
    3707, 
    3708, 
    3709, 
    3710, 
    3711, 
    3712, 
    3713, 
    3714, 
    3715, 
    3716, 
    3717, 
    3718, 
    3719, 
    3720, 
    3721, 
    3722, 
    3723, 
    3724, 
    3725, 
    3726, 
    3727, 
    3728, 
    3729, 
    3730, 
    3731, 
    3732, 
    3733, 
    3734, 
    3735, 
    3736, 
    3737, 
    3738, 
    3739, 
    3740, 
    3741, 
    3742, 
    3743, 
    3744, 
    3745, 
    3746, 
    3747, 
    3748, 
    3749, 
    3750, 
    3751, 
    3752, 
    3753, 
    3754, 
    3755, 
    3756, 
    3757, 
    3758, 
    3759, 
    3760, 
    3761, 
    3762, 
    3763, 
    3764, 
    3765, 
    3766, 
    3767, 
    3768, 
    3769, 
    3770, 
    3771, 
    3772, 
    3773, 
    3774, 
    3775, 
    3776, 
    3777, 
    3778, 
    3779, 
    3780, 
    3781, 
    3782, 
    3783, 
    3784, 
    3785, 
    3786, 
    3787, 
    3788, 
    3789, 
    3790, 
    3791, 
    3792, 
    3793, 
    3794, 
    3795, 
    3796, 
    3797, 
    3798, 
    3799, 
    3800, 
    3801, 
    3802, 
    3803, 
    3804, 
    3805, 
    3806, 
    3807, 
    3808, 
    3809, 
    3810, 
    3811, 
    3812, 
    3813, 
    3814, 
    3815, 
    3816, 
    3817, 
    3818, 
    3819, 
    3820, 
    3821, 
    3822, 
    3823, 
    3824, 
    3825, 
    3826, 
    3827, 
    3828, 
    3829, 
    3830, 
    3831, 
    3832, 
    3833, 
    3834, 
    3835, 
    3836, 
    3837, 
    3838, 
    3839, 
    3840, 
    3841, 
    3842, 
    3843, 
    3844, 
    3845, 
    3846, 
    3847, 
    3848, 
    3849, 
    3850, 
    3851, 
    3852, 
    3853, 
    3854, 
    3855, 
    3856, 
    3857, 
    3858, 
    3859, 
    3860, 
    3861, 
    3862, 
    3863, 
    3864, 
    3865, 
    3866, 
    3867, 
    3868, 
    3869, 
    3870, 
    3871, 
    3872, 
    3873, 
    3874, 
    3875, 
    3876, 
    3877, 
    3878, 
    3879, 
    3880, 
    3881, 
    3882, 
    3883, 
    3884, 
    3885, 
    3886, 
    3887, 
    3888, 
    3889, 
    3890, 
    3891, 
    3892, 
    3893, 
    3894, 
    3895, 
    3896, 
    3897, 
    3898, 
    3899, 
    3900, 
    3901, 
    3902, 
    3903, 
    3904, 
    3905, 
    3906, 
    3907, 
    3908, 
    3909, 
    3910, 
    3911, 
    3912, 
    3913, 
    3914, 
    3915, 
    3916, 
    3917, 
    3918, 
    3919, 
    3920, 
    3921, 
    3922, 
    3923, 
    3924, 
    3925, 
    3926, 
    3927, 
    3928, 
    3929, 
    3930, 
    3931, 
    3932, 
    3933, 
    3934, 
    3935, 
    3936, 
    3937, 
    3938, 
    3939, 
    3940, 
    3941, 
    3942, 
    3943, 
    3944, 
    3945, 
    3946, 
    3947, 
    3948, 
    3949, 
    3950, 
    3951, 
    3952, 
    3953, 
    3954, 
    3955, 
    3956, 
    3957, 
    3958, 
    3959, 
    3960, 
    3961, 
    3962, 
    3963, 
    3964, 
    3965, 
    3966, 
    3967, 
    3968, 
    3969, 
    3970, 
    3971, 
    3972, 
    3973, 
    3974, 
    3975, 
    3976, 
    3977, 
    3978, 
    3979, 
    3980, 
    3981, 
    3982, 
    3983, 
    3984, 
    3985, 
    3986, 
    3987, 
    3988, 
    3989, 
    3990, 
    3991, 
    3992, 
    3993, 
    3994, 
    3995, 
    3996, 
    3997, 
    3998, 
    3999, 
    4000, 
    4001, 
    4002, 
    4003, 
    4004, 
    4005, 
    4006, 
    4007, 
    4008, 
    4009, 
    4010, 
    4011, 
    4012, 
    4013, 
    4014, 
    4015, 
    4016, 
    4017, 
    4018, 
    4019, 
    4020, 
    4021, 
    4022, 
    4023, 
    4024, 
    4025, 
    4026, 
    4027, 
    4028, 
    4029, 
    4030, 
    4031, 
    4032, 
    4033, 
    4034, 
    4035, 
    4036, 
    4037, 
    4038, 
    4039, 
    4040, 
    4041, 
    4042, 
    4043, 
    4044, 
    4045, 
    4046, 
    4047, 
    4048, 
    4049, 
    4050, 
    4051, 
    4052, 
    4053, 
    4054, 
    4055, 
    4056, 
    4057, 
    4058, 
    4059, 
    4060, 
    4061, 
    4062, 
    4063, 
    4064, 
    4065, 
    4066, 
    4067, 
    4068, 
    4069, 
    4070, 
    4071, 
    4072, 
    4073, 
    4074, 
    4075, 
    4076, 
    4077, 
    4078, 
    4079, 
    4080, 
    4081, 
    4082, 
    4083, 
    4084, 
    4085, 
    4086, 
    4087, 
    4088, 
    4089, 
    4090, 
    4091, 
    4092, 
    4093, 
    4094, 
    4095, 
    4096, 
    4097, 
    4098, 
    4099, 
    4100, 
    4101, 
    4102, 
    4103, 
    4104, 
    4105, 
    4106, 
    4107, 
    4108, 
    4109, 
    4110, 
    4111, 
    4112, 
    4113, 
    4114, 
    4115, 
    4116, 
    4117, 
    4118, 
    4119, 
    4120, 
    4121, 
    4122, 
    4123, 
    4124, 
    4125, 
    4126, 
    4127, 
    4128, 
    4129, 
    4130, 
    4131, 
    4132, 
    4133, 
    4134, 
    4135, 
    4136, 
    4137, 
    4138, 
    4139, 
    4140, 
    4141, 
    4142, 
    4143, 
    4144, 
    4145, 
    4146, 
    4147, 
    4148, 
    4149, 
    4150, 
    4151, 
    4152, 
    4153, 
    4154, 
    4155, 
    4156, 
    4157, 
    4158, 
    4159, 
    4160, 
    4161, 
    4162, 
    4163, 
    4164, 
    4165, 
    4166, 
    4167, 
    4168, 
    4169, 
    4170, 
    4171, 
    4172, 
    4173, 
    4174, 
    4175, 
    4176, 
    4177, 
    4178, 
    4179, 
    4180, 
    4181, 
    4182, 
    4183, 
    4184, 
    4185, 
    4186, 
    4187, 
    4188, 
    4189, 
    4190, 
    4191, 
    4192, 
    4193, 
    4194, 
    4195, 
    4196, 
    4197, 
    4198, 
    4199, 
    4200, 
    4201, 
    4202, 
    4203, 
    4204, 
    4205, 
    4206, 
    4207, 
    4208, 
    4209, 
    4210, 
    4211, 
    4212, 
    4213, 
    4214, 
    4215, 
    4216, 
    4217, 
    4218, 
    4219, 
    4220, 
    4221, 
    4222, 
    4223, 
    4224, 
    4225, 
    4226, 
    4227, 
    4228, 
    4229, 
    4230, 
    4231, 
    4232, 
    4233, 
    4234, 
    4235, 
    4236, 
    4237, 
    4238, 
    4239, 
    4240, 
    4241, 
    4242, 
    4243, 
    4244, 
    4245, 
    4246, 
    4247, 
    4248, 
    4249, 
    4250, 
    4251, 
    4252, 
    4253, 
    4254, 
    4255, 
    4256, 
    4257, 
    4258, 
    4259, 
    4260, 
    4261, 
    4262, 
    4263, 
    4264, 
    4265, 
    4266, 
    4267, 
    4268, 
    4269, 
    4270, 
    4271, 
    4272, 
    4273, 
    4274, 
    4275, 
    4276, 
    4277, 
    4278, 
    4279, 
    4280, 
    4281, 
    4282, 
    4283, 
    4284, 
    4285, 
    4286, 
    4287, 
    4288, 
    4289, 
    4290, 
    4291, 
    4292, 
    4293, 
    4294, 
    4295, 
    4296, 
    4297, 
    4298, 
    4299, 
    4300, 
    4301, 
    4302, 
    4303, 
    4304, 
    4305, 
    4306, 
    4307, 
    4308, 
    4309, 
    4310, 
    4311, 
    4312, 
    4313, 
    4314, 
    4315, 
    4316, 
    4317, 
    4318, 
    4319, 
    4320, 
    4321, 
    4322, 
    4323, 
    4324, 
    4325, 
    4326, 
    4327, 
    4328, 
    4329, 
    4330, 
    4331, 
    4332, 
    4333, 
    4334, 
    4335, 
    4336, 
    4337, 
    4338, 
    4339, 
    4340, 
    4341, 
    4342, 
    4343, 
    4344, 
    4345, 
    4346, 
    4347, 
    4348, 
    4349, 
    4350, 
    4351, 
    4352, 
    4353, 
    4354, 
    4355, 
    4356, 
    4357, 
    4358, 
    4359, 
    4360, 
    4361, 
    4362, 
    4363, 
    4364, 
    4365, 
    4366, 
    4367, 
    4368, 
    4369, 
    4370, 
    4371, 
    4372, 
    4373, 
    4374, 
    4375, 
    4376, 
    4377, 
    4378, 
    4379, 
    4380, 
    4381, 
    4382, 
    4383, 
    4384, 
    4385, 
    4386, 
    4387, 
    4388, 
    4389, 
    4390, 
    4391, 
    4392, 
    4393, 
    4394, 
    4395, 
    4396, 
    4397, 
    4398, 
    4399, 
    4400, 
    4401, 
    4402, 
    4403, 
    4404, 
    4405, 
    4406, 
    4407, 
    4408, 
    4409, 
    4410, 
    4411, 
    4412, 
    4413, 
    4414, 
    4415, 
    4416, 
    4417, 
    4418, 
    4419, 
    4420, 
    4421, 
    4422, 
    4423, 
    4424, 
    4425, 
    4426, 
    4427, 
    4428, 
    4429, 
    4430, 
    4431, 
    4432, 
    4433, 
    4434, 
    4435, 
    4436, 
    4437, 
    4438, 
    4439, 
    4440, 
    4441, 
    4442, 
    4443, 
    4444, 
    4445, 
    4446, 
    4447, 
    4448, 
    4449, 
    4450, 
    4451, 
    4452, 
    4453, 
    4454, 
    4455, 
    4456, 
    4457, 
    4458, 
    4459, 
    4460, 
    4461, 
    4462, 
    4463, 
    4464, 
    4465, 
    4466, 
    4467, 
    4468, 
    4469, 
    4470, 
    4471, 
    4472, 
    4473, 
    4474, 
    4475, 
    4476, 
    4477, 
    4478, 
    4479, 
    4480, 
    4481, 
    4482, 
    4483, 
    4484, 
    4485, 
    4486, 
    4487, 
    4488, 
    4489, 
    4490, 
    4491, 
    4492, 
    4493, 
    4494, 
    4495, 
    4496, 
    4497, 
    4498, 
    4499, 
    4500, 
    4501, 
    4502, 
    4503, 
    4504, 
    4505, 
    4506, 
    4507, 
    4508, 
    4509, 
    4510, 
    4511, 
    4512, 
    4513, 
    4514, 
    4515, 
    4516, 
    4517, 
    4518, 
    4519, 
    4520, 
    4521, 
    4522, 
    4523, 
    4524, 
    4525, 
    4526, 
    4527, 
    4528, 
    4529, 
    4530, 
    4531, 
    4532, 
    4533, 
    4534, 
    4535, 
    4536, 
    4537, 
    4538, 
    4539, 
    4540, 
    4541, 
    4542, 
    4543, 
    4544, 
    4545, 
    4546, 
    4547, 
    4548, 
    4549, 
    4550, 
    4551, 
    4552, 
    4553, 
    4554, 
    4555, 
    4556, 
    4557, 
    4558, 
    4559, 
    4560, 
    4561, 
    4562, 
    4563, 
    4564, 
    4565, 
    4566, 
    4567, 
    4568, 
    4569, 
    4570, 
    4571, 
    4572, 
    4573, 
    4574, 
    4575, 
    4576, 
    4577, 
    4578, 
    4579, 
    4580, 
    4581, 
    4582, 
    4583, 
    4584, 
    4585, 
    4586, 
    4587, 
    4588, 
    4589, 
    4590, 
    4591, 
    4592, 
    4593, 
    4594, 
    4595, 
    4596, 
    4597, 
    4598, 
    4599, 
    4600, 
    4601, 
    4602, 
    4603, 
    4604, 
    4605, 
    4606, 
    4607, 
    4608, 
    4609, 
    4610, 
    4611, 
    4612, 
    4613, 
    4614, 
    4615, 
    4616, 
    4617, 
    4618, 
    4619, 
    4620, 
    4621, 
    4622, 
    4623, 
    4624, 
    4625, 
    4626, 
    4627, 
    4628, 
    4629, 
    4630, 
    4631, 
    4632, 
    4633, 
    4634, 
    4635, 
    4636, 
    4637, 
    4638, 
    4639, 
    4640, 
    4641, 
    4642, 
    4643, 
    4644, 
    4645, 
    4646, 
    4647, 
    4648, 
    4649, 
    4650, 
    4651, 
    4652, 
    4653, 
    4654, 
    4655, 
    4656, 
    4657, 
    4658, 
    4659, 
    4660, 
    4661, 
    4662, 
    4663, 
    4664, 
    4665, 
    4666, 
    4667, 
    4668, 
    4669, 
    4670, 
    4671, 
    4672, 
    4673, 
    4674, 
    4675, 
    4676, 
    4677, 
    4678, 
    4679, 
    4680, 
    4681, 
    4682, 
    4683, 
    4684, 
    4685, 
    4686, 
    4687, 
    4688, 
    4689, 
    4690, 
    4691, 
    4692, 
    4693, 
    4694, 
    4695, 
    4696, 
    4697, 
    4698, 
    4699, 
    4700, 
    4701, 
    4702, 
    4703, 
    4704, 
    4705, 
    4706, 
    4707, 
    4708, 
    4709, 
    4710, 
    4711, 
    4712, 
    4713, 
    4714, 
    4715, 
    4716, 
    4717, 
    4718, 
    4719, 
    4720, 
    4721, 
    4722, 
    4723, 
    4724, 
    4725, 
    4726, 
    4727, 
    4728, 
    4729, 
    4730, 
    4731, 
    4732, 
    4733, 
    4734, 
    4735, 
    4736, 
    4737, 
    4738, 
    4739, 
    4740, 
    4741, 
    4742, 
    4743, 
    4744, 
    4745, 
    4746, 
    4747, 
    4748, 
    4749, 
    4750, 
    4751, 
    4752, 
    4753, 
    4754, 
    4755, 
    4756, 
    4757, 
    4758, 
    4759, 
    4760, 
    4761, 
    4762, 
    4763, 
    4764, 
    4765, 
    4766, 
    4767, 
    4768, 
    4769, 
    4770, 
    4771, 
    4772, 
    4773, 
    4774, 
    4775, 
    4776, 
    4777, 
    4778, 
    4779, 
    4780, 
    4781, 
    4782, 
    4783, 
    4784, 
    4785, 
    4786, 
    4787, 
    4788, 
    4789, 
    4790, 
    4791, 
    4792, 
    4793, 
    4794, 
    4795, 
    4796, 
    4797, 
    4798, 
    4799, 
    4800, 
    4801, 
    4802, 
    4803, 
    4804, 
    4805, 
    4806, 
    4807, 
    4808, 
    4809, 
    4810, 
    4811, 
    4812, 
    4813, 
    4814, 
    4815, 
    4816, 
    4817, 
    4818, 
    4819, 
    4820, 
    4821, 
    4822, 
    4823, 
    4824, 
    4825, 
    4826, 
    4827, 
    4828, 
    4829, 
    4830, 
    4831, 
    4832, 
    4833, 
    4834, 
    4835, 
    4836, 
    4837, 
    4838, 
    4839, 
    4840, 
    4841, 
    4842, 
    4843, 
    4844, 
    4845, 
    4846, 
    4847, 
    4848, 
    4849, 
    4850, 
    4851, 
    4852, 
    4853, 
    4854, 
    4855, 
    4856, 
    4857, 
    4858, 
    4859, 
    4860, 
    4861, 
    4862, 
    4863, 
    4864, 
    4865, 
    4866, 
    4867, 
    4868, 
    4869, 
    4870, 
    4871, 
    4872, 
    4873, 
    4874, 
    4875, 
    4876, 
    4877, 
    4878, 
    4879, 
    4880, 
    4881, 
    4882, 
    4883, 
    4884, 
    4885, 
    4886, 
    4887, 
    4888, 
    4889, 
    4890, 
    4891, 
    4892, 
    4893, 
    4894, 
    4895, 
    4896, 
    4897, 
    4898, 
    4899, 
    4900, 
    4901, 
    4902, 
    4903, 
    4904, 
    4905, 
    4906, 
    4907, 
    4908, 
    4909, 
    4910, 
    4911, 
    4912, 
    4913, 
    4914, 
    4915, 
    4916, 
    4917, 
    4918, 
    4919, 
    4920, 
    4921, 
    4922, 
    4923, 
    4924, 
    4925, 
    4926, 
    4927, 
    4928, 
    4929, 
    4930, 
    4931, 
    4932, 
    4933, 
    4934, 
    4935, 
    4936, 
    4937, 
    4938, 
    4939, 
    4940, 
    4941, 
    4942, 
    4943, 
    4944, 
    4945, 
    4946, 
    4947, 
    4948, 
    4949, 
    4950, 
    4951, 
    4952, 
    4953, 
    4954, 
    4955, 
    4956, 
    4957, 
    4958, 
    4959, 
    4960, 
    4961, 
    4962, 
    4963, 
    4964, 
    4965, 
    4966, 
    4967, 
    4968, 
    4969, 
    4970, 
    4971, 
    4972, 
    4973, 
    4974, 
    4975, 
    4976, 
    4977, 
    4978, 
    4979, 
    4980, 
    4981, 
    4982, 
    4983, 
    4984, 
    4985, 
    4986, 
    4987, 
    4988, 
    4989, 
    4990, 
    4991, 
    4992, 
    4993, 
    4994, 
    4995, 
    4996, 
    4997, 
    4998, 
    4999, 
    5000, 
    5001, 
    5002, 
    5003, 
    5004, 
    5005, 
    5006, 
    5007, 
    5008, 
    5009, 
    5010, 
    5011, 
    5012, 
    5013, 
    5014, 
    5015, 
    5016, 
    5017, 
    5018, 
    5019, 
    5020, 
    5021, 
    5022, 
    5023, 
    5024, 
    5025, 
    5026, 
    5027, 
    5028, 
    5029, 
    5030, 
    5031, 
    5032, 
    5033, 
    5034, 
    5035, 
    5036, 
    5037, 
    5038, 
    5039, 
    5040, 
    5041, 
    5042, 
    5043, 
    5044, 
    5045, 
    5046, 
    5047, 
    5048, 
    5049, 
    5050, 
    5051, 
    5052, 
    5053, 
    5054, 
    5055, 
    5056, 
    5057, 
    5058, 
    5059, 
    5060, 
    5061, 
    5062, 
    5063, 
    5064, 
    5065, 
    5066, 
    5067, 
    5068, 
    5069, 
    5070, 
    5071, 
    5072, 
    5073, 
    5074, 
    5075, 
    5076, 
    5077, 
    5078, 
    5079, 
    5080, 
    5081, 
    5082, 
    5083, 
    5084, 
    5085, 
    5086, 
    5087, 
    5088, 
    5089, 
    5090, 
    5091, 
    5092, 
    5093, 
    5094, 
    5095, 
    5096, 
    5097, 
    5098, 
    5099, 
    5100, 
    5101, 
    5102, 
    5103, 
    5104, 
    5105, 
    5106, 
    5107, 
    5108, 
    5109, 
    5110, 
    5111, 
    5112, 
    5113, 
    5114, 
    5115, 
    5116, 
    5117, 
    5118, 
    5119, 
    5120, 
    5121, 
    5122, 
    5123, 
    5124, 
    5125, 
    5126, 
    5127, 
    5128, 
    5129, 
    5130, 
    5131, 
    5132, 
    5133, 
    5134, 
    5135, 
    5136, 
    5137, 
    5138, 
    5139, 
    5140, 
    5141, 
    5142, 
    5143, 
    5144, 
    5145, 
    5146, 
    5147, 
    5148, 
    5149, 
    5150, 
    5151, 
    5152, 
    5153, 
    5154, 
    5155, 
    5156, 
    5157, 
    5158, 
    5159, 
    5160, 
    5161, 
    5162, 
    5163, 
    5164, 
    5165, 
    5166, 
    5167, 
    5168, 
    5169, 
    5170, 
    5171, 
    5172, 
    5173, 
    5174, 
    5175, 
    5176, 
    5177, 
    5178, 
    5179, 
    5180, 
    5181, 
    5182, 
    5183, 
    5184, 
    5185, 
    5186, 
    5187, 
    5188, 
    5189, 
    5190, 
    5191, 
    5192, 
    5193, 
    5194, 
    5195, 
    5196, 
    5197, 
    5198, 
    5199, 
    5200, 
    5201, 
    5202, 
    5203, 
    5204, 
    5205, 
    5206, 
    5207, 
    5208, 
    5209, 
    5210, 
    5211, 
    5212, 
    5213, 
    5214, 
    5215, 
    5216, 
    5217, 
    5218, 
    5219, 
    5220, 
    5221, 
    5222, 
    5223, 
    5224, 
    5225, 
    5226, 
    5227, 
    5228, 
    5229, 
    5230, 
    5231, 
    5232, 
    5233, 
    5234, 
    5235, 
    5236, 
    5237, 
    5238, 
    5239, 
    5240, 
    5241, 
    5242, 
    5243, 
    5244, 
    5245, 
    5246, 
    5247, 
    5248, 
    5249, 
    5250, 
    5251, 
    5252, 
    5253, 
    5254, 
    5255, 
    5256, 
    5257, 
    5258, 
    5259, 
    5260, 
    5261, 
    5262, 
    5263, 
    5264, 
    5265, 
    5266, 
    5267, 
    5268, 
    5269, 
    5270, 
    5271, 
    5272, 
    5273, 
    5274, 
    5275, 
    5276, 
    5277, 
    5278, 
    5279, 
    5280, 
    5281, 
    5282, 
    5283, 
    5284, 
    5285, 
    5286, 
    5287, 
    5288, 
    5289, 
    5290, 
    5291, 
    5292, 
    5293, 
    5294, 
    5295, 
    5296, 
    5297, 
    5298, 
    5299, 
    5300, 
    5301, 
    5302, 
    5303, 
    5304, 
    5305, 
    5306, 
    5307, 
    5308, 
    5309, 
    5310, 
    5311, 
    5312, 
    5313, 
    5314, 
    5315, 
    5316, 
    5317, 
    5318, 
    5319, 
    5320, 
    5321, 
    5322, 
    5323, 
    5324, 
    5325, 
    5326, 
    5327, 
    5328, 
    5329, 
    5330, 
    5331, 
    5332, 
    5333, 
    5334, 
    5335, 
    5336, 
    5337, 
    5338, 
    5339, 
    5340, 
    5341, 
    5342, 
    5343, 
    5344, 
    5345, 
    5346, 
    5347, 
    5348, 
    5349, 
    5350, 
    5351, 
    5352, 
    5353, 
    5354, 
    5355, 
    5356, 
    5357, 
    5358, 
    5359, 
    5360, 
    5361, 
    5362, 
    5363, 
    5364, 
    5365, 
    5366, 
    5367, 
    5368, 
    5369, 
    5370, 
    5371, 
    5372, 
    5373, 
    5374, 
    5375, 
    5376, 
    5377, 
    5378, 
    5379, 
    5380, 
    5381, 
    5382, 
    5383, 
    5384, 
    5385, 
    5386, 
    5387, 
    5388, 
    5389, 
    5390, 
    5391, 
    5392, 
    5393, 
    5394, 
    5395, 
    5396, 
    5397, 
    5398, 
    5399, 
    5400, 
    5401, 
    5402, 
    5403, 
    5404, 
    5405, 
    5406, 
    5407, 
    5408, 
    5409, 
    5410, 
    5411, 
    5412, 
    5413, 
    5414, 
    5415, 
    5416, 
    5417, 
    5418, 
    5419, 
    5420, 
    5421, 
    5422, 
    5423, 
    5424, 
    5425, 
    5426, 
    5427, 
    5428, 
    5429, 
    5430, 
    5431, 
    5432, 
    5433, 
    5434, 
    5435, 
    5436, 
    5437, 
    5438, 
    5439, 
    5440, 
    5441, 
    5442, 
    5443, 
    5444, 
    5445, 
    5446, 
    5447, 
    5448, 
    5449, 
    5450, 
    5451, 
    5452, 
    5453, 
    5454, 
    5455, 
    5456, 
    5457, 
    5458, 
    5459, 
    5460, 
    5461, 
    5462, 
    5463, 
    5464, 
    5465, 
    5466, 
    5467, 
    5468, 
    5469, 
    5470, 
    5471, 
    5472, 
    5473, 
    5474, 
    5475, 
    5476, 
    5477, 
    5478, 
    5479, 
    5480, 
    5481, 
    5482, 
    5483, 
    5484, 
    5485, 
    5486, 
    5487, 
    5488, 
    5489, 
    5490, 
    5491, 
    5492, 
    5493, 
    5494, 
    5495, 
    5496, 
    5497, 
    5498, 
    5499, 
    5500, 
    5501, 
    5502, 
    5503, 
    5504, 
    5505, 
    5506, 
    5507, 
    5508, 
    5509, 
    5510, 
    5511, 
    5512, 
    5513, 
    5514, 
    5515, 
    5516, 
    5517, 
    5518, 
    5519, 
    5520, 
    5521, 
    5522, 
    5523, 
    5524, 
    5525, 
    5526, 
    5527, 
    5528, 
    5529, 
    5530, 
    5531, 
    5532, 
    5533, 
    5534, 
    5535, 
    5536, 
    5537, 
    5538, 
    5539, 
    5540, 
    5541, 
    5542, 
    5543, 
    5544, 
    5545, 
    5546, 
    5547, 
    5548, 
    5549, 
    5550, 
    5551, 
    5552, 
    5553, 
    5554, 
    5555, 
    5556, 
    5557, 
    5558, 
    5559, 
    5560, 
    5561, 
    5562, 
    5563, 
    5564, 
    5565, 
    5566, 
    5567, 
    5568, 
    5569, 
    5570, 
    5571, 
    5572, 
    5573, 
    5574, 
    5575, 
    5576, 
    5577, 
    5578, 
    5579, 
    5580, 
    5581, 
    5582, 
    5583, 
    5584, 
    5585, 
    5586, 
    5587, 
    5588, 
    5589, 
    5590, 
    5591, 
    5592, 
    5593, 
    5594, 
    5595, 
    5596, 
    5597, 
    5598, 
    5599, 
    5600, 
    5601, 
    5602, 
    5603, 
    5604, 
    5605, 
    5606, 
    5607, 
    5608, 
    5609, 
    5610, 
    5611, 
    5612, 
    5613, 
    5614, 
    5615, 
    5616, 
    5617, 
    5618, 
    5619, 
    5620, 
    5621, 
    5622, 
    5623, 
    5624, 
    5625, 
    5626, 
    5627, 
    5628, 
    5629, 
    5630, 
    5631, 
    5632, 
    5633, 
    5634, 
    5635, 
    5636, 
    5637, 
    5638, 
    5639, 
    5640, 
    5641, 
    5642, 
    5643, 
    5644, 
    5645, 
    5646, 
    5647, 
    5648, 
    5649, 
    5650, 
    5651, 
    5652, 
    5653, 
    5654, 
    5655, 
    5656, 
    5657, 
    5658, 
    5659, 
    5660, 
    5661, 
    5662, 
    5663, 
    5664, 
    5665, 
    5666, 
    5667, 
    5668, 
    5669, 
    5670, 
    5671, 
    5672, 
    5673, 
    5674, 
    5675, 
    5676, 
    5677, 
    5678, 
    5679, 
    5680, 
    5681, 
    5682, 
    5683, 
    5684, 
    5685, 
    5686, 
    5687, 
    5688, 
    5689, 
    5690, 
    5691, 
    5692, 
    5693, 
    5694, 
    5695, 
    5696, 
    5697, 
    5698, 
    5699, 
    5700, 
    5701, 
    5702, 
    5703, 
    5704, 
    5705, 
    5706, 
    5707, 
    5708, 
    5709, 
    5710, 
    5711, 
    5712, 
    5713, 
    5714, 
    5715, 
    5716, 
    5717, 
    5718, 
    5719, 
    5720, 
    5721, 
    5722, 
    5723, 
    5724, 
    5725, 
    5726, 
    5727, 
    5728, 
    5729, 
    5730, 
    5731, 
    5732, 
    5733, 
    5734, 
    5735, 
    5736, 
    5737, 
    5738, 
    5739, 
    5740, 
    5741, 
    5742, 
    5743, 
    5744, 
    5745, 
    5746, 
    5747, 
    5748, 
    5749, 
    5750, 
    5751, 
    5752, 
    5753, 
    5754, 
    5755, 
    5756, 
    5757, 
    5758, 
    5759, 
    5760, 
    5761, 
    5762, 
    5763, 
    5764, 
    5765, 
    5766, 
    5767, 
    5768, 
    5769, 
    5770, 
    5771, 
    5772, 
    5773, 
    5774, 
    5775, 
    5776, 
    5777, 
    5778, 
    5779, 
    5780, 
    5781, 
    5782, 
    5783, 
    5784, 
    5785, 
    5786, 
    5787, 
    5788, 
    5789, 
    5790, 
    5791, 
    5792, 
    5793, 
    5794, 
    5795, 
    5796, 
    5797, 
    5798, 
    5799, 
    5800, 
    5801, 
    5802, 
    5803, 
    5804, 
    5805, 
    5806, 
    5807, 
    5808, 
    5809, 
    5810, 
    5811, 
    5812, 
    5813, 
    5814, 
    5815, 
    5816, 
    5817, 
    5818, 
    5819, 
    5820, 
    5821, 
    5822, 
    5823, 
    5824, 
    5825, 
    5826, 
    5827, 
    5828, 
    5829, 
    5830, 
    5831, 
    5832, 
    5833, 
    5834, 
    5835, 
    5836, 
    5837, 
    5838, 
    5839, 
    5840, 
    5841, 
    5842, 
    5843, 
    5844, 
    5845, 
    5846, 
    5847, 
    5848, 
    5849, 
    5850, 
    5851, 
    5852, 
    5853, 
    5854, 
    5855, 
    5856, 
    5857, 
    5858, 
    5859, 
    5860, 
    5861, 
    5862, 
    5863, 
    5864, 
    5865, 
    5866, 
    5867, 
    5868, 
    5869, 
    5870, 
    5871, 
    5872, 
    5873, 
    5874, 
    5875, 
    5876, 
    5877, 
    5878, 
    5879, 
    5880, 
    5881, 
    5882, 
    5883, 
    5884, 
    5885, 
    5886, 
    5887, 
    5888, 
    5889, 
    5890, 
    5891, 
    5892, 
    5893, 
    5894, 
    5895, 
    5896, 
    5897, 
    5898, 
    5899, 
    5900, 
    5901, 
    5902, 
    5903, 
    5904, 
    5905, 
    5906, 
    5907, 
    5908, 
    5909, 
    5910, 
    5911, 
    5912, 
    5913, 
    5914, 
    5915, 
    5916, 
    5917, 
    5918, 
    5919, 
    5920, 
    5921, 
    5922, 
    5923, 
    5924, 
    5925, 
    5926, 
    5927, 
    5928, 
    5929, 
    5930, 
    5931, 
    5932, 
    5933, 
    5934, 
    5935, 
    5936, 
    5937, 
    5938, 
    5939, 
    5940, 
    5941, 
    5942, 
    5943, 
    5944, 
    5945, 
    5946, 
    5947, 
    5948, 
    5949, 
    5950, 
    5951, 
    5952, 
    5953, 
    5954, 
    5955, 
    5956, 
    5957, 
    5958, 
    5959, 
    5960, 
    5961, 
    5962, 
    5963, 
    5964, 
    5965, 
    5966, 
    5967, 
    5968, 
    5969, 
    5970, 
    5971, 
    5972, 
    5973, 
    5974, 
    5975, 
    5976, 
    5977, 
    5978, 
    5979, 
    5980, 
    5981, 
    5982, 
    5983, 
    5984, 
    5985, 
    5986, 
    5987, 
    5988, 
    5989, 
    5990, 
    5991, 
    5992, 
    5993, 
    5994, 
    5995, 
    5996, 
    5997, 
    5998, 
    5999, 
    6000, 
    6001, 
    6002, 
    6003, 
    6004, 
    6005, 
    6006, 
    6007, 
    6008, 
    6009, 
    6010, 
    6011, 
    6012, 
    6013, 
    6014, 
    6015, 
    6016, 
    6017, 
    6018, 
    6019, 
    6020, 
    6021, 
    6022, 
    6023, 
    6024, 
    6025, 
    6026, 
    6027, 
    6028, 
    6029, 
    6030, 
    6031, 
    6032, 
    6033, 
    6034, 
    6035, 
    6036, 
    6037, 
    6038, 
    6039, 
    6040, 
    6041, 
    6042, 
    6043, 
    6044, 
    6045, 
    6046, 
    6047, 
    6048, 
    6049, 
    6050, 
    6051, 
    6052, 
    6053, 
    6054, 
    6055, 
    6056, 
    6057, 
    6058, 
    6059, 
    6060, 
    6061, 
    6062, 
    6063, 
    6064, 
    6065, 
    6066, 
    6067, 
    6068, 
    6069, 
    6070, 
    6071, 
    6072, 
    6073, 
    6074, 
    6075, 
    6076, 
    6077, 
    6078, 
    6079, 
    6080, 
    6081, 
    6082, 
    6083, 
    6084, 
    6085, 
    6086, 
    6087, 
    6088, 
    6089, 
    6090, 
    6091, 
    6092, 
    6093, 
    6094, 
    6095, 
    6096, 
    6097, 
    6098, 
    6099, 
    6100, 
    6101, 
    6102, 
    6103, 
    6104, 
    6105, 
    6106, 
    6107, 
    6108, 
    6109, 
    6110, 
    6111, 
    6112, 
    6113, 
    6114, 
    6115, 
    6116, 
    6117, 
    6118, 
    6119, 
    6120, 
    6121, 
    6122, 
    6123, 
    6124, 
    6125, 
    6126, 
    6127, 
    6128, 
    6129, 
    6130, 
    6131, 
    6132, 
    6133, 
    6134, 
    6135, 
    6136, 
    6137, 
    6138, 
    6139, 
    6140, 
    6141, 
    6142, 
    6143, 
    6144, 
    6145, 
    6146, 
    6147, 
    6148, 
    6149, 
    6150, 
    6151, 
    6152, 
    6153, 
    6154, 
    6155, 
    6156, 
    6157, 
    6158, 
    6159, 
    6160, 
    6161, 
    6162, 
    6163, 
    6164, 
    6165, 
    6166, 
    6167, 
    6168, 
    6169, 
    6170, 
    6171, 
    6172, 
    6173, 
    6174, 
    6175, 
    6176, 
    6177, 
    6178, 
    6179, 
    6180, 
    6181, 
    6182, 
    6183, 
    6184, 
    6185, 
    6186, 
    6187, 
    6188, 
    6189, 
    6190, 
    6191, 
    6192, 
    6193, 
    6194, 
    6195, 
    6196, 
    6197, 
    6198, 
    6199, 
    6200, 
    6201, 
    6202, 
    6203, 
    6204, 
    6205, 
    6206, 
    6207, 
    6208, 
    6209, 
    6210, 
    6211, 
    6212, 
    6213, 
    6214, 
    6215, 
    6216, 
    6217, 
    6218, 
    6219, 
    6220, 
    6221, 
    6222, 
    6223, 
    6224, 
    6225, 
    6226, 
    6227, 
    6228, 
    6229, 
    6230, 
    6231, 
    6232, 
    6233, 
    6234, 
    6235, 
    6236, 
    6237, 
    6238, 
    6239, 
    6240, 
    6241, 
    6242, 
    6243, 
    6244, 
    6245, 
    6246, 
    6247, 
    6248, 
    6249, 
    6250, 
    6251, 
    6252, 
    6253, 
    6254, 
    6255, 
    6256, 
    6257, 
    6258, 
    6259, 
    6260, 
    6261, 
    6262, 
    6263, 
    6264, 
    6265, 
    6266, 
    6267, 
    6268, 
    6269, 
    6270, 
    6271, 
    6272, 
    6273, 
    6274, 
    6275, 
    6276, 
    6277, 
    6278, 
    6279, 
    6280, 
    6281, 
    6282, 
    6283, 
    6284, 
    6285, 
    6286, 
    6287, 
    6288, 
    6289, 
    6290, 
    6291, 
    6292, 
    6293, 
    6294, 
    6295, 
    6296, 
    6297, 
    6298, 
    6299, 
    6300, 
    6301, 
    6302, 
    6303, 
    6304, 
    6305, 
    6306, 
    6307, 
    6308, 
    6309, 
    6310, 
    6311, 
    6312, 
    6313, 
    6314, 
    6315, 
    6316, 
    6317, 
    6318, 
    6319, 
    6320, 
    6321, 
    6322, 
    6323, 
    6324, 
    6325, 
    6326, 
    6327, 
    6328, 
    6329, 
    6330, 
    6331, 
    6332, 
    6333, 
    6334, 
    6335, 
    6336, 
    6337, 
    6338, 
    6339, 
    6340, 
    6341, 
    6342, 
    6343, 
    6344, 
    6345, 
    6346, 
    6347, 
    6348, 
    6349, 
    6350, 
    6351, 
    6352, 
    6353, 
    6354, 
    6355, 
    6356, 
    6357, 
    6358, 
    6359, 
    6360, 
    6361, 
    6362, 
    6363, 
    6364, 
    6365, 
    6366, 
    6367, 
    6368, 
    6369, 
    6370, 
    6371, 
    6372, 
    6373, 
    6374, 
    6375, 
    6376, 
    6377, 
    6378, 
    6379, 
    6380, 
    6381, 
    6382, 
    6383, 
    6384, 
    6385, 
    6386, 
    6387, 
    6388, 
    6389, 
    6390, 
    6391, 
    6392, 
    6393, 
    6394, 
    6395, 
    6396, 
    6397, 
    6398, 
    6399, 
    6400, 
    6401, 
    6402, 
    6403, 
    6404, 
    6405, 
    6406, 
    6407, 
    6408, 
    6409, 
    6410, 
    6411, 
    6412, 
    6413, 
    6414, 
    6415, 
    6416, 
    6417, 
    6418, 
    6419, 
    6420, 
    6421, 
    6422, 
    6423, 
    6424, 
    6425, 
    6426, 
    6427, 
    6428, 
    6429, 
    6430, 
    6431, 
    6432, 
    6433, 
    6434, 
    6435, 
    6436, 
    6437, 
    6438, 
    6439, 
    6440, 
    6441, 
    6442, 
    6443, 
    6444, 
    6445, 
    6446, 
    6447, 
    6448, 
    6449, 
    6450, 
    6451, 
    6452, 
    6453, 
    6454, 
    6455, 
    6456, 
    6457, 
    6458, 
    6459, 
    6460, 
    6461, 
    6462, 
    6463, 
    6464, 
    6465, 
    6466, 
    6467, 
    6468, 
    6469, 
    6470, 
    6471, 
    6472, 
    6473, 
    6474, 
    6475, 
    6476, 
    6477, 
    6478, 
    6479, 
    6480, 
    6481, 
    6482, 
    6483, 
    6484, 
    6485, 
    6486, 
    6487, 
    6488, 
    6489, 
    6490, 
    6491, 
    6492, 
    6493, 
    6494, 
    6495, 
    6496, 
    6497, 
    6498, 
    6499, 
    6500, 
    6501, 
    6502, 
    6503, 
    6504, 
    6505, 
    6506, 
    6507, 
    6508, 
    6509, 
    6510, 
    6511, 
    6512, 
    6513, 
    6514, 
    6515, 
    6516, 
    6517, 
    6518, 
    6519, 
    6520, 
    6521, 
    6522, 
    6523, 
    6524, 
    6525, 
    6526, 
    6527, 
    6528, 
    6529, 
    6530, 
    6531, 
    6532, 
    6533, 
    6534, 
    6535, 
    6536, 
    6537, 
    6538, 
    6539, 
    6540, 
    6541, 
    6542, 
    6543, 
    6544, 
    6545, 
    6546, 
    6547, 
    6548, 
    6549, 
    6550, 
    6551, 
    6552, 
    6553, 
    6554, 
    6555, 
    6556, 
    6557, 
    6558, 
    6559, 
    6560, 
    6561, 
    6562, 
    6563, 
    6564, 
    6565, 
    6566, 
    6567, 
    6568, 
    6569, 
    6570, 
    6571, 
    6572, 
    6573, 
    6574, 
    6575, 
    6576, 
    6577, 
    6578, 
    6579, 
    6580, 
    6581, 
    6582, 
    6583, 
    6584, 
    6585, 
    6586, 
    6587, 
    6588, 
    6589, 
    6590, 
    6591, 
    6592, 
    6593, 
    6594, 
    6595, 
    6596, 
    6597, 
    6598, 
    6599, 
    6600, 
    6601, 
    6602, 
    6603, 
    6604, 
    6605, 
    6606, 
    6607, 
    6608, 
    6609, 
    6610, 
    6611, 
    6612, 
    6613, 
    6614, 
    6615, 
    6616, 
    6617, 
    6618, 
    6619, 
    6620, 
    6621, 
    6622, 
    6623, 
    6624, 
    6625, 
    6626, 
    6627, 
    6628, 
    6629, 
    6630, 
    6631, 
    6632, 
    6633, 
    6634, 
    6635, 
    6636, 
    6637, 
    6638, 
    6639, 
    6640, 
    6641, 
    6642, 
    6643, 
    6644, 
    6645, 
    6646, 
    6647, 
    6648, 
    6649, 
    6650, 
    6651, 
    6652, 
    6653, 
    6654, 
    6655, 
    6656, 
    6657, 
    6658, 
    6659, 
    6660, 
    6661, 
    6662, 
    6663, 
    6664, 
    6665, 
    6666, 
    6667, 
    6668, 
    6669, 
    6670, 
    6671, 
    6672, 
    6673, 
    6674, 
    6675, 
    6676, 
    6677, 
    6678, 
    6679, 
    6680, 
    6681, 
    6682, 
    6683, 
    6684, 
    6685, 
    6686, 
    6687, 
    6688, 
    6689, 
    6690, 
    6691, 
    6692, 
    6693, 
    6694, 
    6695, 
    6696, 
    6697, 
    6698, 
    6699, 
    6700, 
    6701, 
    6702, 
    6703, 
    6704, 
    6705, 
    6706, 
    6707, 
    6708, 
    6709, 
    6710, 
    6711, 
    6712, 
    6713, 
    6714, 
    6715, 
    6716, 
    6717, 
    6718, 
    6719, 
    6720, 
    6721, 
    6722, 
    6723, 
    6724, 
    6725, 
    6726, 
    6727, 
    6728, 
    6729, 
    6730, 
    6731, 
    6732, 
    6733, 
    6734, 
    6735, 
    6736, 
    6737, 
    6738, 
    6739, 
    6740, 
    6741, 
    6742, 
    6743, 
    6744, 
    6745, 
    6746, 
    6747, 
    6748, 
    6749, 
    6750, 
    6751, 
    6752, 
    6753, 
    6754, 
    6755, 
    6756, 
    6757, 
    6758, 
    6759, 
    6760, 
    6761, 
    6762, 
    6763, 
    6764, 
    6765, 
    6766, 
    6767, 
    6768, 
    6769, 
    6770, 
    6771, 
    6772, 
    6773, 
    6774, 
    6775, 
    6776, 
    6777, 
    6778, 
    6779, 
    6780, 
    6781, 
    6782, 
    6783, 
    6784, 
    6785, 
    6786, 
    6787, 
    6788, 
    6789, 
    6790, 
    6791, 
    6792, 
    6793, 
    6794, 
    6795, 
    6796, 
    6797, 
    6798, 
    6799, 
    6800, 
    6801, 
    6802, 
    6803, 
    6804, 
    6805, 
    6806, 
    6807, 
    6808, 
    6809, 
    6810, 
    6811, 
    6812, 
    6813, 
    6814, 
    6815, 
    6816, 
    6817, 
    6818, 
    6819, 
    6820, 
    6821, 
    6822, 
    6823, 
    6824, 
    6825, 
    6826, 
    6827, 
    6828, 
    6829, 
    6830, 
    6831, 
    6832, 
    6833, 
    6834, 
    6835, 
    6836, 
    6837, 
    6838, 
    6839, 
    6840, 
    6841, 
    6842, 
    6843, 
    6844, 
    6845, 
    6846, 
    6847, 
    6848, 
    6849, 
    6850, 
    6851, 
    6852, 
    6853, 
    6854, 
    6855, 
    6856, 
    6857, 
    6858, 
    6859, 
    6860, 
    6861, 
    6862, 
    6863, 
    6864, 
    6865, 
    6866, 
    6867, 
    6868, 
    6869, 
    6870, 
    6871, 
    6872, 
    6873, 
    6874, 
    6875, 
    6876, 
    6877, 
    6878, 
    6879, 
    6880, 
    6881, 
    6882, 
    6883, 
    6884, 
    6885, 
    6886, 
    6887, 
    6888, 
    6889, 
    6890, 
    6891, 
    6892, 
    6893, 
    6894, 
    6895, 
    6896, 
    6897, 
    6898, 
    6899, 
    6900, 
    6901, 
    6902, 
    6903, 
    6904, 
    6905, 
    6906, 
    6907, 
    6908, 
    6909, 
    6910, 
    6911, 
    6912, 
    6913, 
    6914, 
    6915, 
    6916, 
    6917, 
    6918, 
    6919, 
    6920, 
    6921, 
    6922, 
    6923, 
    6924, 
    6925, 
    6926, 
    6927, 
    6928, 
    6929, 
    6930, 
    6931, 
    6932, 
    6933, 
    6934, 
    6935, 
    6936, 
    6937, 
    6938, 
    6939, 
    6940, 
    6941, 
    6942, 
    6943, 
    6944, 
    6945, 
    6946, 
    6947, 
    6948, 
    6949, 
    6950, 
    6951, 
    6952, 
    6953, 
    6954, 
    6955, 
    6956, 
    6957, 
    6958, 
    6959, 
    6960, 
    6961, 
    6962, 
    6963, 
    6964, 
    6965, 
    6966, 
    6967, 
    6968, 
    6969, 
    6970, 
    6971, 
    6972, 
    6973, 
    6974, 
    6975, 
    6976, 
    6977, 
    6978, 
    6979, 
    6980, 
    6981, 
    6982, 
    6983, 
    6984, 
    6985, 
    6986, 
    6987, 
    6988, 
    6989, 
    6990, 
    6991, 
    6992, 
    6993, 
    6994, 
    6995, 
    6996, 
    6997, 
    6998, 
    6999, 
    7000, 
    7001, 
    7002, 
    7003, 
    7004, 
    7005, 
    7006, 
    7007, 
    7008, 
    7009, 
    7010, 
    7011, 
    7012, 
    7013, 
    7014, 
    7015, 
    7016, 
    7017, 
    7018, 
    7019, 
    7020, 
    7021
  ], 
  "heads": [[6322, 0, 0]], 
  "attrs": {"mxnet_version": ["int", 10901]}
}